…
I0511 14:52:10.641598   441 solver.cpp:48] Initializing solver from parameters: 
test_iter: 1
test_iter: 1
test_interval: 1000000
base_lr: 0.001
display: 0
lr_policy: "fixed"
momentum: 0.9
weight_decay: 0.005
snapshot_prefix: "python/../experiments/mjc_badmm_example/policy"
random_seed: 1
train_net_param {
  layer {
    name: "Python1"
    type: "Python"
    top: "Python1"
    top: "Python2"
    top: "Python3"
    python_param {
      module: "policy_layers"
      layer: "PolicyDataLayer"
      param_str: "{\"shape\": [{\"dim\": [25, 26]}, {\"dim\": [25, 7]}, {\"dim\": [25, 7, 7]}]}"
    }
  }
  layer {
    name: "InnerProduct1"
    type: "InnerProduct"
    bottom: "Python1"
    top: "InnerProduct1"
    inner_product_param {
      num_output: 42
      weight_filler {
        type: "gaussian"
        std: 0.01
      }
      bias_filler {
        type: "constant"
        value: 0
      }
    }
  }
  layer {
    name: "ReLU1"
    type: "ReLU"
    bottom: "InnerProduct1"
    top: "InnerProduct1"
  }
  layer {
    name: "InnerProduct2"
    type: "InnerProduct"
    bottom: "InnerProduct1"
    top: "InnerProduct2"
    inner_product_param {
      num_output: 42
      weight_filler {
        type: "gaussian"
        std: 0.01
      }
      bias_filler {
        type: "constant"
        value: 0
      }
    }
  }
  layer {
    name: "ReLU2"
    type: "ReLU"
    bottom: "InnerProduct2"
    top: "InnerProduct2"
  }
  layer {
    name: "InnerProduct3"
    type: "InnerProduct"
    bottom: "InnerProduct2"
    top: "InnerProduct3"
    inner_product_param {
      num_output: 7
      weight_filler {
        type: "gaussian"
        std: 0.01
      }
      bias_filler {
        type: "constant"
        value: 0
      }
    }
  }
  layer {
    name: "Python4"
    type: "Python"
    bottom: "InnerProduct3"
    bottom: "Python2"
    bottom: "Python3"
    top: "Python4"
    loss_weight: 1
    python_param {
      module: "policy_layers"
      layer: "WeightedEuclideanLoss"
    }
  }
}
test_net_param {
  layer {
    name: "Python1"
    type: "Python"
    top: "Python1"
    python_param {
      module: "policy_layers"
      layer: "PolicyDataLayer"
      param_str: "{\"shape\": [{\"dim\": [1, 26]}]}"
    }
  }
  layer {
    name: "InnerProduct1"
    type: "InnerProduct"
    bottom: "Python1"
    top: "InnerProduct1"
    inner_product_param {
      num_output: 42
      weight_filler {
        type: "gaussian"
        std: 0.01
      }
      bias_filler {
        type: "constant"
        value: 0
      }
    }
  }
  layer {
    name: "ReLU1"
    type: "ReLU"
    bottom: "InnerProduct1"
    top: "InnerProduct1"
  }
  layer {
    name: "InnerProduct2"
    type: "InnerProduct"
    bottom: "InnerProduct1"
    top: "InnerProduct2"
    inner_product_param {
      num_output: 42
      weight_filler {
        type: "gaussian"
        std: 0.01
      }
      bias_filler {
        type: "constant"
        value: 0
      }
    }
  }
  layer {
    name: "ReLU2"
    type: "ReLU"
    bottom: "InnerProduct2"
    top: "InnerProduct2"
  }
  layer {
    name: "InnerProduct3"
    type: "InnerProduct"
    bottom: "InnerProduct2"
    top: "InnerProduct3"
    inner_product_param {
      num_output: 7
      weight_filler {
        type: "gaussian"
        std: 0.01
      }
      bias_filler {
        type: "constant"
        value: 0
      }
    }
  }
}
test_net_param {
  layer {
    name: "DummyData1"
    type: "DummyData"
    top: "DummyData1"
    dummy_data_param {
      shape {
        dim: 1
        dim: 26
      }
    }
  }
  layer {
    name: "InnerProduct1"
    type: "InnerProduct"
    bottom: "DummyData1"
    top: "InnerProduct1"
    inner_product_param {
      num_output: 42
      weight_filler {
        type: "gaussian"
        std: 0.01
      }
      bias_filler {
        type: "constant"
        value: 0
      }
    }
  }
  layer {
    name: "ReLU1"
    type: "ReLU"
    bottom: "InnerProduct1"
    top: "InnerProduct1"
  }
  layer {
    name: "InnerProduct2"
    type: "InnerProduct"
    bottom: "InnerProduct1"
    top: "InnerProduct2"
    inner_product_param {
      num_output: 42
      weight_filler {
        type: "gaussian"
        std: 0.01
      }
      bias_filler {
        type: "constant"
        value: 0
      }
    }
  }
  layer {
    name: "ReLU2"
    type: "ReLU"
    bottom: "InnerProduct2"
    top: "InnerProduct2"
  }
  layer {
    name: "InnerProduct3"
    type: "InnerProduct"
    bottom: "InnerProduct2"
    top: "InnerProduct3"
    inner_product_param {
      num_output: 7
      weight_filler {
        type: "gaussian"
        std: 0.01
      }
      bias_filler {
        type: "constant"
        value: 0
      }
    }
  }
}
type: "Adam"
I0511 14:52:10.641638   441 solver.cpp:77] Creating training net specified in train_net_param.
I0511 14:52:10.641690   441 net.cpp:49] Initializing net from parameters: 
state {
  phase: TRAIN
}
layer {
  name: "Python1"
  type: "Python"
  top: "Python1"
  top: "Python2"
  top: "Python3"
  python_param {
    module: "policy_layers"
    layer: "PolicyDataLayer"
    param_str: "{\"shape\": [{\"dim\": [25, 26]}, {\"dim\": [25, 7]}, {\"dim\": [25, 7, 7]}]}"
  }
}
layer {
  name: "InnerProduct1"
  type: "InnerProduct"
  bottom: "Python1"
  top: "InnerProduct1"
  inner_product_param {
    num_output: 42
    weight_filler {
      type: "gaussian"
      std: 0.01
    }
    bias_filler {
      type: "constant"
      value: 0
    }
  }
}
layer {
  name: "ReLU1"
  type: "ReLU"
  bottom: "InnerProduct1"
  top: "InnerProduct1"
}
layer {
  name: "InnerProduct2"
  type: "InnerProduct"
  bottom: "InnerProduct1"
  top: "InnerProduct2"
  inner_product_param {
    num_output: 42
    weight_filler {
      type: "gaussian"
      std: 0.01
    }
    bias_filler {
      type: "constant"
      value: 0
    }
  }
}
layer {
  name: "ReLU2"
  type: "ReLU"
  bottom: "InnerProduct2"
  top: "InnerProduct2"
}
layer {
  name: "InnerProduct3"
  type: "InnerProduct"
  bottom: "InnerProduct2"
  top: "InnerProduct3"
  inner_product_param {
    num_output: 7
    weight_filler {
      type: "gaussian"
      std: 0.01
    }
    bias_filler {
      type: "constant"
      value: 0
    }
  }
}
layer {
  name: "Python4"
  type: "Python"
  bottom: "InnerProduct3"
  bottom: "Python2"
  bottom: "Python3"
  top: "Python4"
  loss_weight: 1
  python_param {
    module: "policy_layers"
    layer: "WeightedEuclideanLoss"
  }
}
I0511 14:52:10.641717   441 layer_factory.hpp:77] Creating layer Python1
I0511 14:52:10.641928   441 net.cpp:91] Creating Layer Python1
I0511 14:52:10.641939   441 net.cpp:399] Python1 -> Python1
I0511 14:52:10.641947   441 net.cpp:399] Python1 -> Python2
I0511 14:52:10.641953   441 net.cpp:399] Python1 -> Python3
I0511 14:52:10.648615   441 net.cpp:141] Setting up Python1
I0511 14:52:10.648633   441 net.cpp:148] Top shape: 25 26 (650)
I0511 14:52:10.648638   441 net.cpp:148] Top shape: 25 7 (175)
I0511 14:52:10.648641   441 net.cpp:148] Top shape: 25 7 7 (1225)
I0511 14:52:10.648643   441 net.cpp:156] Memory required for data: 8200
I0511 14:52:10.648648   441 layer_factory.hpp:77] Creating layer InnerProduct1
I0511 14:52:10.648660   441 net.cpp:91] Creating Layer InnerProduct1
I0511 14:52:10.648664   441 net.cpp:425] InnerProduct1 <- Python1
I0511 14:52:10.648670   441 net.cpp:399] InnerProduct1 -> InnerProduct1
I0511 14:52:10.649129   441 net.cpp:141] Setting up InnerProduct1
I0511 14:52:10.649139   441 net.cpp:148] Top shape: 25 42 (1050)
I0511 14:52:10.649142   441 net.cpp:156] Memory required for data: 12400
I0511 14:52:10.649152   441 layer_factory.hpp:77] Creating layer ReLU1
I0511 14:52:10.649161   441 net.cpp:91] Creating Layer ReLU1
I0511 14:52:10.649164   441 net.cpp:425] ReLU1 <- InnerProduct1
I0511 14:52:10.649169   441 net.cpp:386] ReLU1 -> InnerProduct1 (in-place)
I0511 14:52:10.769619   441 net.cpp:141] Setting up ReLU1
I0511 14:52:10.769644   441 net.cpp:148] Top shape: 25 42 (1050)
I0511 14:52:10.769649   441 net.cpp:156] Memory required for data: 16600
I0511 14:52:10.769654   441 layer_factory.hpp:77] Creating layer InnerProduct2
I0511 14:52:10.769665   441 net.cpp:91] Creating Layer InnerProduct2
I0511 14:52:10.769668   441 net.cpp:425] InnerProduct2 <- InnerProduct1
I0511 14:52:10.769675   441 net.cpp:399] InnerProduct2 -> InnerProduct2
I0511 14:52:10.769821   441 net.cpp:141] Setting up InnerProduct2
I0511 14:52:10.769829   441 net.cpp:148] Top shape: 25 42 (1050)
I0511 14:52:10.769832   441 net.cpp:156] Memory required for data: 20800
I0511 14:52:10.769841   441 layer_factory.hpp:77] Creating layer ReLU2
I0511 14:52:10.769847   441 net.cpp:91] Creating Layer ReLU2
I0511 14:52:10.769850   441 net.cpp:425] ReLU2 <- InnerProduct2
I0511 14:52:10.769855   441 net.cpp:386] ReLU2 -> InnerProduct2 (in-place)
I0511 14:52:10.769973   441 net.cpp:141] Setting up ReLU2
I0511 14:52:10.769980   441 net.cpp:148] Top shape: 25 42 (1050)
I0511 14:52:10.769984   441 net.cpp:156] Memory required for data: 25000
I0511 14:52:10.769986   441 layer_factory.hpp:77] Creating layer InnerProduct3
I0511 14:52:10.769991   441 net.cpp:91] Creating Layer InnerProduct3
I0511 14:52:10.769994   441 net.cpp:425] InnerProduct3 <- InnerProduct2
I0511 14:52:10.769999   441 net.cpp:399] InnerProduct3 -> InnerProduct3
I0511 14:52:10.770426   441 net.cpp:141] Setting up InnerProduct3
I0511 14:52:10.770437   441 net.cpp:148] Top shape: 25 7 (175)
I0511 14:52:10.770440   441 net.cpp:156] Memory required for data: 25700
I0511 14:52:10.770447   441 layer_factory.hpp:77] Creating layer Python4
I0511 14:52:10.770495   441 net.cpp:91] Creating Layer Python4
I0511 14:52:10.770501   441 net.cpp:425] Python4 <- InnerProduct3
I0511 14:52:10.770505   441 net.cpp:425] Python4 <- Python2
I0511 14:52:10.770509   441 net.cpp:425] Python4 <- Python3
I0511 14:52:10.770514   441 net.cpp:399] Python4 -> Python4
I0511 14:52:10.770563   441 net.cpp:141] Setting up Python4
I0511 14:52:10.770571   441 net.cpp:148] Top shape: 1 (1)
I0511 14:52:10.770575   441 net.cpp:151]     with loss weight 1
I0511 14:52:10.770581   441 net.cpp:156] Memory required for data: 25704
I0511 14:52:10.770584   441 net.cpp:217] Python4 needs backward computation.
I0511 14:52:10.770588   441 net.cpp:217] InnerProduct3 needs backward computation.
I0511 14:52:10.770592   441 net.cpp:217] ReLU2 needs backward computation.
I0511 14:52:10.770596   441 net.cpp:217] InnerProduct2 needs backward computation.
I0511 14:52:10.770598   441 net.cpp:217] ReLU1 needs backward computation.
I0511 14:52:10.770601   441 net.cpp:217] InnerProduct1 needs backward computation.
I0511 14:52:10.770603   441 net.cpp:219] Python1 does not need backward computation.
I0511 14:52:10.770606   441 net.cpp:261] This network produces output Python4
I0511 14:52:10.770612   441 net.cpp:274] Network initialization done.
I0511 14:52:10.770648   441 solver.cpp:181] Creating test net (#0) specified by test_net_param
I0511 14:52:10.770707   441 net.cpp:49] Initializing net from parameters: 
state {
  phase: TEST
}
layer {
  name: "Python1"
  type: "Python"
  top: "Python1"
  python_param {
    module: "policy_layers"
    layer: "PolicyDataLayer"
    param_str: "{\"shape\": [{\"dim\": [1, 26]}]}"
  }
}
layer {
  name: "InnerProduct1"
  type: "InnerProduct"
  bottom: "Python1"
  top: "InnerProduct1"
  inner_product_param {
    num_output: 42
    weight_filler {
      type: "gaussian"
      std: 0.01
    }
    bias_filler {
      type: "constant"
      value: 0
    }
  }
}
layer {
  name: "ReLU1"
  type: "ReLU"
  bottom: "InnerProduct1"
  top: "InnerProduct1"
}
layer {
  name: "InnerProduct2"
  type: "InnerProduct"
  bottom: "InnerProduct1"
  top: "InnerProduct2"
  inner_product_param {
    num_output: 42
    weight_filler {
      type: "gaussian"
      std: 0.01
    }
    bias_filler {
      type: "constant"
      value: 0
    }
  }
}
layer {
  name: "ReLU2"
  type: "ReLU"
  bottom: "InnerProduct2"
  top: "InnerProduct2"
}
layer {
  name: "InnerProduct3"
  type: "InnerProduct"
  bottom: "InnerProduct2"
  top: "InnerProduct3"
  inner_product_param {
    num_output: 7
    weight_filler {
      type: "gaussian"
      std: 0.01
    }
    bias_filler {
      type: "constant"
      value: 0
    }
  }
}
I0511 14:52:10.770731   441 layer_factory.hpp:77] Creating layer Python1
I0511 14:52:10.770752   441 net.cpp:91] Creating Layer Python1
I0511 14:52:10.770756   441 net.cpp:399] Python1 -> Python1
I0511 14:52:10.770823   441 net.cpp:141] Setting up Python1
I0511 14:52:10.770833   441 net.cpp:148] Top shape: 1 26 (26)
I0511 14:52:10.770835   441 net.cpp:156] Memory required for data: 104
I0511 14:52:10.770838   441 layer_factory.hpp:77] Creating layer InnerProduct1
I0511 14:52:10.770845   441 net.cpp:91] Creating Layer InnerProduct1
I0511 14:52:10.770848   441 net.cpp:425] InnerProduct1 <- Python1
I0511 14:52:10.770853   441 net.cpp:399] InnerProduct1 -> InnerProduct1
I0511 14:52:10.770953   441 net.cpp:141] Setting up InnerProduct1
I0511 14:52:10.770961   441 net.cpp:148] Top shape: 1 42 (42)
I0511 14:52:10.770963   441 net.cpp:156] Memory required for data: 272
I0511 14:52:10.770972   441 layer_factory.hpp:77] Creating layer ReLU1
I0511 14:52:10.770977   441 net.cpp:91] Creating Layer ReLU1
I0511 14:52:10.770979   441 net.cpp:425] ReLU1 <- InnerProduct1
I0511 14:52:10.770982   441 net.cpp:386] ReLU1 -> InnerProduct1 (in-place)
I0511 14:52:10.771216   441 net.cpp:141] Setting up ReLU1
I0511 14:52:10.771226   441 net.cpp:148] Top shape: 1 42 (42)
I0511 14:52:10.771229   441 net.cpp:156] Memory required for data: 440
I0511 14:52:10.771232   441 layer_factory.hpp:77] Creating layer InnerProduct2
I0511 14:52:10.771237   441 net.cpp:91] Creating Layer InnerProduct2
I0511 14:52:10.771240   441 net.cpp:425] InnerProduct2 <- InnerProduct1
I0511 14:52:10.771245   441 net.cpp:399] InnerProduct2 -> InnerProduct2
I0511 14:52:10.771368   441 net.cpp:141] Setting up InnerProduct2
I0511 14:52:10.771374   441 net.cpp:148] Top shape: 1 42 (42)
I0511 14:52:10.771376   441 net.cpp:156] Memory required for data: 608
I0511 14:52:10.771384   441 layer_factory.hpp:77] Creating layer ReLU2
I0511 14:52:10.771387   441 net.cpp:91] Creating Layer ReLU2
I0511 14:52:10.771390   441 net.cpp:425] ReLU2 <- InnerProduct2
I0511 14:52:10.771394   441 net.cpp:386] ReLU2 -> InnerProduct2 (in-place)
I0511 14:52:10.771512   441 net.cpp:141] Setting up ReLU2
I0511 14:52:10.771520   441 net.cpp:148] Top shape: 1 42 (42)
I0511 14:52:10.771523   441 net.cpp:156] Memory required for data: 776
I0511 14:52:10.771525   441 layer_factory.hpp:77] Creating layer InnerProduct3
I0511 14:52:10.771530   441 net.cpp:91] Creating Layer InnerProduct3
I0511 14:52:10.771533   441 net.cpp:425] InnerProduct3 <- InnerProduct2
I0511 14:52:10.771538   441 net.cpp:399] InnerProduct3 -> InnerProduct3
I0511 14:52:10.771615   441 net.cpp:141] Setting up InnerProduct3
I0511 14:52:10.771621   441 net.cpp:148] Top shape: 1 7 (7)
I0511 14:52:10.771623   441 net.cpp:156] Memory required for data: 804
I0511 14:52:10.771631   441 net.cpp:219] InnerProduct3 does not need backward computation.
I0511 14:52:10.771633   441 net.cpp:219] ReLU2 does not need backward computation.
I0511 14:52:10.771636   441 net.cpp:219] InnerProduct2 does not need backward computation.
I0511 14:52:10.771639   441 net.cpp:219] ReLU1 does not need backward computation.
I0511 14:52:10.771641   441 net.cpp:219] InnerProduct1 does not need backward computation.
I0511 14:52:10.771644   441 net.cpp:219] Python1 does not need backward computation.
I0511 14:52:10.771646   441 net.cpp:261] This network produces output InnerProduct3
I0511 14:52:10.771652   441 net.cpp:274] Network initialization done.
I0511 14:52:10.771662   441 solver.cpp:181] Creating test net (#1) specified by test_net_param
I0511 14:52:10.771711   441 net.cpp:49] Initializing net from parameters: 
state {
  phase: TEST
}
layer {
  name: "DummyData1"
  type: "DummyData"
  top: "DummyData1"
  dummy_data_param {
    shape {
      dim: 1
      dim: 26
    }
  }
}
layer {
  name: "InnerProduct1"
  type: "InnerProduct"
  bottom: "DummyData1"
  top: "InnerProduct1"
  inner_product_param {
    num_output: 42
    weight_filler {
      type: "gaussian"
      std: 0.01
    }
    bias_filler {
      type: "constant"
      value: 0
    }
  }
}
layer {
  name: "ReLU1"
  type: "ReLU"
  bottom: "InnerProduct1"
  top: "InnerProduct1"
}
layer {
  name: "InnerProduct2"
  type: "InnerProduct"
  bottom: "InnerProduct1"
  top: "InnerProduct2"
  inner_product_param {
    num_output: 42
    weight_filler {
      type: "gaussian"
      std: 0.01
    }
    bias_filler {
      type: "constant"
      value: 0
    }
  }
}
layer {
  name: "ReLU2"
  type: "ReLU"
  bottom: "InnerProduct2"
  top: "InnerProduct2"
}
layer {
  name: "InnerProduct3"
  type: "InnerProduct"
  bottom: "InnerProduct2"
  top: "InnerProduct3"
  inner_product_param {
    num_output: 7
    weight_filler {
      type: "gaussian"
      std: 0.01
    }
    bias_filler {
      type: "constant"
      value: 0
    }
  }
}
I0511 14:52:10.771731   441 layer_factory.hpp:77] Creating layer DummyData1
I0511 14:52:10.771742   441 net.cpp:91] Creating Layer DummyData1
I0511 14:52:10.771745   441 net.cpp:399] DummyData1 -> DummyData1
I0511 14:52:10.771778   441 net.cpp:141] Setting up DummyData1
I0511 14:52:10.771785   441 net.cpp:148] Top shape: 1 26 (26)
I0511 14:52:10.771788   441 net.cpp:156] Memory required for data: 104
I0511 14:52:10.771790   441 layer_factory.hpp:77] Creating layer InnerProduct1
I0511 14:52:10.771795   441 net.cpp:91] Creating Layer InnerProduct1
I0511 14:52:10.771798   441 net.cpp:425] InnerProduct1 <- DummyData1
I0511 14:52:10.771802   441 net.cpp:399] InnerProduct1 -> InnerProduct1
I0511 14:52:10.771899   441 net.cpp:141] Setting up InnerProduct1
I0511 14:52:10.771905   441 net.cpp:148] Top shape: 1 42 (42)
I0511 14:52:10.771908   441 net.cpp:156] Memory required for data: 272
I0511 14:52:10.771915   441 layer_factory.hpp:77] Creating layer ReLU1
I0511 14:52:10.771919   441 net.cpp:91] Creating Layer ReLU1
I0511 14:52:10.771922   441 net.cpp:425] ReLU1 <- InnerProduct1
I0511 14:52:10.771926   441 net.cpp:386] ReLU1 -> InnerProduct1 (in-place)
I0511 14:52:10.772155   441 net.cpp:141] Setting up ReLU1
I0511 14:52:10.772164   441 net.cpp:148] Top shape: 1 42 (42)
I0511 14:52:10.772167   441 net.cpp:156] Memory required for data: 440
I0511 14:52:10.772171   441 layer_factory.hpp:77] Creating layer InnerProduct2
I0511 14:52:10.772176   441 net.cpp:91] Creating Layer InnerProduct2
I0511 14:52:10.772178   441 net.cpp:425] InnerProduct2 <- InnerProduct1
I0511 14:52:10.772182   441 net.cpp:399] InnerProduct2 -> InnerProduct2
I0511 14:52:10.772305   441 net.cpp:141] Setting up InnerProduct2
I0511 14:52:10.772311   441 net.cpp:148] Top shape: 1 42 (42)
I0511 14:52:10.772315   441 net.cpp:156] Memory required for data: 608
I0511 14:52:10.772320   441 layer_factory.hpp:77] Creating layer ReLU2
I0511 14:52:10.772325   441 net.cpp:91] Creating Layer ReLU2
I0511 14:52:10.772327   441 net.cpp:425] ReLU2 <- InnerProduct2
I0511 14:52:10.772331   441 net.cpp:386] ReLU2 -> InnerProduct2 (in-place)
I0511 14:52:10.772447   441 net.cpp:141] Setting up ReLU2
I0511 14:52:10.772454   441 net.cpp:148] Top shape: 1 42 (42)
I0511 14:52:10.772457   441 net.cpp:156] Memory required for data: 776
I0511 14:52:10.772460   441 layer_factory.hpp:77] Creating layer InnerProduct3
I0511 14:52:10.772465   441 net.cpp:91] Creating Layer InnerProduct3
I0511 14:52:10.772467   441 net.cpp:425] InnerProduct3 <- InnerProduct2
I0511 14:52:10.772472   441 net.cpp:399] InnerProduct3 -> InnerProduct3
I0511 14:52:10.772549   441 net.cpp:141] Setting up InnerProduct3
I0511 14:52:10.772555   441 net.cpp:148] Top shape: 1 7 (7)
I0511 14:52:10.772557   441 net.cpp:156] Memory required for data: 804
I0511 14:52:10.772564   441 net.cpp:219] InnerProduct3 does not need backward computation.
I0511 14:52:10.772567   441 net.cpp:219] ReLU2 does not need backward computation.
I0511 14:52:10.772570   441 net.cpp:219] InnerProduct2 does not need backward computation.
I0511 14:52:10.772572   441 net.cpp:219] ReLU1 does not need backward computation.
…
