…
I0511 13:26:52.601939 31578 solver.cpp:48] Initializing solver from parameters: 
test_iter: 1
test_iter: 1
test_interval: 1000000
base_lr: 0.001
display: 0
lr_policy: "fixed"
momentum: 0.9
weight_decay: 0.005
snapshot_prefix: "python/../experiments/mjc_mdgps_example/policy"
random_seed: 1
train_net_param {
  layer {
    name: "Python1"
    type: "Python"
    top: "Python1"
    top: "Python2"
    top: "Python3"
    python_param {
      module: "policy_layers"
      layer: "PolicyDataLayer"
      param_str: "{\"shape\": [{\"dim\": [25, 26]}, {\"dim\": [25, 7]}, {\"dim\": [25, 7, 7]}]}"
    }
  }
  layer {
    name: "InnerProduct1"
    type: "InnerProduct"
    bottom: "Python1"
    top: "InnerProduct1"
    inner_product_param {
      num_output: 42
      weight_filler {
        type: "gaussian"
        std: 0.01
      }
      bias_filler {
        type: "constant"
        value: 0
      }
    }
  }
  layer {
    name: "ReLU1"
    type: "ReLU"
    bottom: "InnerProduct1"
    top: "InnerProduct1"
  }
  layer {
    name: "InnerProduct2"
    type: "InnerProduct"
    bottom: "InnerProduct1"
    top: "InnerProduct2"
    inner_product_param {
      num_output: 42
      weight_filler {
        type: "gaussian"
        std: 0.01
      }
      bias_filler {
        type: "constant"
        value: 0
      }
    }
  }
  layer {
    name: "ReLU2"
    type: "ReLU"
    bottom: "InnerProduct2"
    top: "InnerProduct2"
  }
  layer {
    name: "InnerProduct3"
    type: "InnerProduct"
    bottom: "InnerProduct2"
    top: "InnerProduct3"
    inner_product_param {
      num_output: 7
      weight_filler {
        type: "gaussian"
        std: 0.01
      }
      bias_filler {
        type: "constant"
        value: 0
      }
    }
  }
  layer {
    name: "Python4"
    type: "Python"
    bottom: "InnerProduct3"
    bottom: "Python2"
    bottom: "Python3"
    top: "Python4"
    loss_weight: 1
    python_param {
      module: "policy_layers"
      layer: "WeightedEuclideanLoss"
    }
  }
}
test_net_param {
  layer {
    name: "Python1"
    type: "Python"
    top: "Python1"
    python_param {
      module: "policy_layers"
      layer: "PolicyDataLayer"
      param_str: "{\"shape\": [{\"dim\": [1, 26]}]}"
    }
  }
  layer {
    name: "InnerProduct1"
    type: "InnerProduct"
    bottom: "Python1"
    top: "InnerProduct1"
    inner_product_param {
      num_output: 42
      weight_filler {
        type: "gaussian"
        std: 0.01
      }
      bias_filler {
        type: "constant"
        value: 0
      }
    }
  }
  layer {
    name: "ReLU1"
    type: "ReLU"
    bottom: "InnerProduct1"
    top: "InnerProduct1"
  }
  layer {
    name: "InnerProduct2"
    type: "InnerProduct"
    bottom: "InnerProduct1"
    top: "InnerProduct2"
    inner_product_param {
      num_output: 42
      weight_filler {
        type: "gaussian"
        std: 0.01
      }
      bias_filler {
        type: "constant"
        value: 0
      }
    }
  }
  layer {
    name: "ReLU2"
    type: "ReLU"
    bottom: "InnerProduct2"
    top: "InnerProduct2"
  }
  layer {
    name: "InnerProduct3"
    type: "InnerProduct"
    bottom: "InnerProduct2"
    top: "InnerProduct3"
    inner_product_param {
      num_output: 7
      weight_filler {
        type: "gaussian"
        std: 0.01
      }
      bias_filler {
        type: "constant"
        value: 0
      }
    }
  }
}
test_net_param {
  layer {
    name: "DummyData1"
    type: "DummyData"
    top: "DummyData1"
    dummy_data_param {
      shape {
        dim: 1
        dim: 26
      }
    }
  }
  layer {
    name: "InnerProduct1"
    type: "InnerProduct"
    bottom: "DummyData1"
    top: "InnerProduct1"
    inner_product_param {
      num_output: 42
      weight_filler {
        type: "gaussian"
        std: 0.01
      }
      bias_filler {
        type: "constant"
        value: 0
      }
    }
  }
  layer {
    name: "ReLU1"
    type: "ReLU"
    bottom: "InnerProduct1"
    top: "InnerProduct1"
  }
  layer {
    name: "InnerProduct2"
    type: "InnerProduct"
    bottom: "InnerProduct1"
    top: "InnerProduct2"
    inner_product_param {
      num_output: 42
      weight_filler {
        type: "gaussian"
        std: 0.01
      }
      bias_filler {
        type: "constant"
        value: 0
      }
    }
  }
  layer {
    name: "ReLU2"
    type: "ReLU"
    bottom: "InnerProduct2"
    top: "InnerProduct2"
  }
  layer {
    name: "InnerProduct3"
    type: "InnerProduct"
    bottom: "InnerProduct2"
    top: "InnerProduct3"
    inner_product_param {
      num_output: 7
      weight_filler {
        type: "gaussian"
        std: 0.01
      }
      bias_filler {
        type: "constant"
        value: 0
      }
    }
  }
}
type: "Adam"
I0511 13:26:52.601992 31578 solver.cpp:77] Creating training net specified in train_net_param.
I0511 13:26:52.602046 31578 net.cpp:49] Initializing net from parameters: 
state {
  phase: TRAIN
}
layer {
  name: "Python1"
  type: "Python"
  top: "Python1"
  top: "Python2"
  top: "Python3"
  python_param {
    module: "policy_layers"
    layer: "PolicyDataLayer"
    param_str: "{\"shape\": [{\"dim\": [25, 26]}, {\"dim\": [25, 7]}, {\"dim\": [25, 7, 7]}]}"
  }
}
layer {
  name: "InnerProduct1"
  type: "InnerProduct"
  bottom: "Python1"
  top: "InnerProduct1"
  inner_product_param {
    num_output: 42
    weight_filler {
      type: "gaussian"
      std: 0.01
    }
    bias_filler {
      type: "constant"
      value: 0
    }
  }
}
layer {
  name: "ReLU1"
  type: "ReLU"
  bottom: "InnerProduct1"
  top: "InnerProduct1"
}
layer {
  name: "InnerProduct2"
  type: "InnerProduct"
  bottom: "InnerProduct1"
  top: "InnerProduct2"
  inner_product_param {
    num_output: 42
    weight_filler {
      type: "gaussian"
      std: 0.01
    }
    bias_filler {
      type: "constant"
      value: 0
    }
  }
}
layer {
  name: "ReLU2"
  type: "ReLU"
  bottom: "InnerProduct2"
  top: "InnerProduct2"
}
layer {
  name: "InnerProduct3"
  type: "InnerProduct"
  bottom: "InnerProduct2"
  top: "InnerProduct3"
  inner_product_param {
    num_output: 7
    weight_filler {
      type: "gaussian"
      std: 0.01
    }
    bias_filler {
      type: "constant"
      value: 0
    }
  }
}
layer {
  name: "Python4"
  type: "Python"
  bottom: "InnerProduct3"
  bottom: "Python2"
  bottom: "Python3"
  top: "Python4"
  loss_weight: 1
  python_param {
    module: "policy_layers"
    layer: "WeightedEuclideanLoss"
  }
}
I0511 13:26:52.602079 31578 layer_factory.hpp:77] Creating layer Python1
I0511 13:26:52.602293 31578 net.cpp:91] Creating Layer Python1
I0511 13:26:52.602303 31578 net.cpp:399] Python1 -> Python1
I0511 13:26:52.602310 31578 net.cpp:399] Python1 -> Python2
I0511 13:26:52.602319 31578 net.cpp:399] Python1 -> Python3
I0511 13:26:52.610064 31578 net.cpp:141] Setting up Python1
I0511 13:26:52.610085 31578 net.cpp:148] Top shape: 25 26 (650)
I0511 13:26:52.610090 31578 net.cpp:148] Top shape: 25 7 (175)
I0511 13:26:52.610092 31578 net.cpp:148] Top shape: 25 7 7 (1225)
I0511 13:26:52.610095 31578 net.cpp:156] Memory required for data: 8200
I0511 13:26:52.610100 31578 layer_factory.hpp:77] Creating layer InnerProduct1
I0511 13:26:52.610115 31578 net.cpp:91] Creating Layer InnerProduct1
I0511 13:26:52.610118 31578 net.cpp:425] InnerProduct1 <- Python1
I0511 13:26:52.610123 31578 net.cpp:399] InnerProduct1 -> InnerProduct1
I0511 13:26:52.610569 31578 net.cpp:141] Setting up InnerProduct1
I0511 13:26:52.610579 31578 net.cpp:148] Top shape: 25 42 (1050)
I0511 13:26:52.610581 31578 net.cpp:156] Memory required for data: 12400
I0511 13:26:52.610590 31578 layer_factory.hpp:77] Creating layer ReLU1
I0511 13:26:52.610599 31578 net.cpp:91] Creating Layer ReLU1
I0511 13:26:52.610601 31578 net.cpp:425] ReLU1 <- InnerProduct1
I0511 13:26:52.610605 31578 net.cpp:386] ReLU1 -> InnerProduct1 (in-place)
I0511 13:26:52.735113 31578 net.cpp:141] Setting up ReLU1
I0511 13:26:52.735136 31578 net.cpp:148] Top shape: 25 42 (1050)
I0511 13:26:52.735139 31578 net.cpp:156] Memory required for data: 16600
I0511 13:26:52.735144 31578 layer_factory.hpp:77] Creating layer InnerProduct2
I0511 13:26:52.735155 31578 net.cpp:91] Creating Layer InnerProduct2
I0511 13:26:52.735159 31578 net.cpp:425] InnerProduct2 <- InnerProduct1
I0511 13:26:52.735165 31578 net.cpp:399] InnerProduct2 -> InnerProduct2
I0511 13:26:52.735316 31578 net.cpp:141] Setting up InnerProduct2
I0511 13:26:52.735323 31578 net.cpp:148] Top shape: 25 42 (1050)
I0511 13:26:52.735327 31578 net.cpp:156] Memory required for data: 20800
I0511 13:26:52.735335 31578 layer_factory.hpp:77] Creating layer ReLU2
I0511 13:26:52.735342 31578 net.cpp:91] Creating Layer ReLU2
I0511 13:26:52.735347 31578 net.cpp:425] ReLU2 <- InnerProduct2
I0511 13:26:52.735352 31578 net.cpp:386] ReLU2 -> InnerProduct2 (in-place)
I0511 13:26:52.735472 31578 net.cpp:141] Setting up ReLU2
I0511 13:26:52.735481 31578 net.cpp:148] Top shape: 25 42 (1050)
I0511 13:26:52.735483 31578 net.cpp:156] Memory required for data: 25000
I0511 13:26:52.735486 31578 layer_factory.hpp:77] Creating layer InnerProduct3
I0511 13:26:52.735492 31578 net.cpp:91] Creating Layer InnerProduct3
I0511 13:26:52.735497 31578 net.cpp:425] InnerProduct3 <- InnerProduct2
I0511 13:26:52.735502 31578 net.cpp:399] InnerProduct3 -> InnerProduct3
I0511 13:26:52.735935 31578 net.cpp:141] Setting up InnerProduct3
I0511 13:26:52.735946 31578 net.cpp:148] Top shape: 25 7 (175)
I0511 13:26:52.735949 31578 net.cpp:156] Memory required for data: 25700
I0511 13:26:52.735956 31578 layer_factory.hpp:77] Creating layer Python4
I0511 13:26:52.736011 31578 net.cpp:91] Creating Layer Python4
I0511 13:26:52.736017 31578 net.cpp:425] Python4 <- InnerProduct3
I0511 13:26:52.736021 31578 net.cpp:425] Python4 <- Python2
I0511 13:26:52.736024 31578 net.cpp:425] Python4 <- Python3
I0511 13:26:52.736029 31578 net.cpp:399] Python4 -> Python4
I0511 13:26:52.736083 31578 net.cpp:141] Setting up Python4
I0511 13:26:52.736090 31578 net.cpp:148] Top shape: 1 (1)
I0511 13:26:52.736093 31578 net.cpp:151]     with loss weight 1
I0511 13:26:52.736100 31578 net.cpp:156] Memory required for data: 25704
I0511 13:26:52.736104 31578 net.cpp:217] Python4 needs backward computation.
I0511 13:26:52.736106 31578 net.cpp:217] InnerProduct3 needs backward computation.
I0511 13:26:52.736114 31578 net.cpp:217] ReLU2 needs backward computation.
I0511 13:26:52.736116 31578 net.cpp:217] InnerProduct2 needs backward computation.
I0511 13:26:52.736119 31578 net.cpp:217] ReLU1 needs backward computation.
I0511 13:26:52.736122 31578 net.cpp:217] InnerProduct1 needs backward computation.
I0511 13:26:52.736125 31578 net.cpp:219] Python1 does not need backward computation.
I0511 13:26:52.736129 31578 net.cpp:261] This network produces output Python4
I0511 13:26:52.736135 31578 net.cpp:274] Network initialization done.
I0511 13:26:52.736169 31578 solver.cpp:181] Creating test net (#0) specified by test_net_param
I0511 13:26:52.736225 31578 net.cpp:49] Initializing net from parameters: 
state {
  phase: TEST
}
layer {
  name: "Python1"
  type: "Python"
  top: "Python1"
  python_param {
    module: "policy_layers"
    layer: "PolicyDataLayer"
    param_str: "{\"shape\": [{\"dim\": [1, 26]}]}"
  }
}
layer {
  name: "InnerProduct1"
  type: "InnerProduct"
  bottom: "Python1"
  top: "InnerProduct1"
  inner_product_param {
    num_output: 42
    weight_filler {
      type: "gaussian"
      std: 0.01
    }
    bias_filler {
      type: "constant"
      value: 0
    }
  }
}
layer {
  name: "ReLU1"
  type: "ReLU"
  bottom: "InnerProduct1"
  top: "InnerProduct1"
}
layer {
  name: "InnerProduct2"
  type: "InnerProduct"
  bottom: "InnerProduct1"
  top: "InnerProduct2"
  inner_product_param {
    num_output: 42
    weight_filler {
      type: "gaussian"
      std: 0.01
    }
    bias_filler {
      type: "constant"
      value: 0
    }
  }
}
layer {
  name: "ReLU2"
  type: "ReLU"
  bottom: "InnerProduct2"
  top: "InnerProduct2"
}
layer {
  name: "InnerProduct3"
  type: "InnerProduct"
  bottom: "InnerProduct2"
  top: "InnerProduct3"
  inner_product_param {
    num_output: 7
    weight_filler {
      type: "gaussian"
      std: 0.01
    }
    bias_filler {
      type: "constant"
      value: 0
    }
  }
}
I0511 13:26:52.736249 31578 layer_factory.hpp:77] Creating layer Python1
I0511 13:26:52.736269 31578 net.cpp:91] Creating Layer Python1
I0511 13:26:52.736274 31578 net.cpp:399] Python1 -> Python1
I0511 13:26:52.736342 31578 net.cpp:141] Setting up Python1
I0511 13:26:52.736351 31578 net.cpp:148] Top shape: 1 26 (26)
I0511 13:26:52.736354 31578 net.cpp:156] Memory required for data: 104
I0511 13:26:52.736358 31578 layer_factory.hpp:77] Creating layer InnerProduct1
I0511 13:26:52.736363 31578 net.cpp:91] Creating Layer InnerProduct1
I0511 13:26:52.736366 31578 net.cpp:425] InnerProduct1 <- Python1
I0511 13:26:52.736371 31578 net.cpp:399] InnerProduct1 -> InnerProduct1
I0511 13:26:52.736472 31578 net.cpp:141] Setting up InnerProduct1
I0511 13:26:52.736479 31578 net.cpp:148] Top shape: 1 42 (42)
I0511 13:26:52.736484 31578 net.cpp:156] Memory required for data: 272
I0511 13:26:52.736490 31578 layer_factory.hpp:77] Creating layer ReLU1
I0511 13:26:52.736495 31578 net.cpp:91] Creating Layer ReLU1
I0511 13:26:52.736498 31578 net.cpp:425] ReLU1 <- InnerProduct1
I0511 13:26:52.736501 31578 net.cpp:386] ReLU1 -> InnerProduct1 (in-place)
I0511 13:26:52.736743 31578 net.cpp:141] Setting up ReLU1
I0511 13:26:52.736754 31578 net.cpp:148] Top shape: 1 42 (42)
I0511 13:26:52.736757 31578 net.cpp:156] Memory required for data: 440
I0511 13:26:52.736760 31578 layer_factory.hpp:77] Creating layer InnerProduct2
I0511 13:26:52.736774 31578 net.cpp:91] Creating Layer InnerProduct2
I0511 13:26:52.736778 31578 net.cpp:425] InnerProduct2 <- InnerProduct1
I0511 13:26:52.736783 31578 net.cpp:399] InnerProduct2 -> InnerProduct2
I0511 13:26:52.736912 31578 net.cpp:141] Setting up InnerProduct2
I0511 13:26:52.736919 31578 net.cpp:148] Top shape: 1 42 (42)
I0511 13:26:52.736922 31578 net.cpp:156] Memory required for data: 608
I0511 13:26:52.736928 31578 layer_factory.hpp:77] Creating layer ReLU2
I0511 13:26:52.736934 31578 net.cpp:91] Creating Layer ReLU2
I0511 13:26:52.736937 31578 net.cpp:425] ReLU2 <- InnerProduct2
I0511 13:26:52.736942 31578 net.cpp:386] ReLU2 -> InnerProduct2 (in-place)
I0511 13:26:52.737068 31578 net.cpp:141] Setting up ReLU2
I0511 13:26:52.737076 31578 net.cpp:148] Top shape: 1 42 (42)
I0511 13:26:52.737079 31578 net.cpp:156] Memory required for data: 776
I0511 13:26:52.737082 31578 layer_factory.hpp:77] Creating layer InnerProduct3
I0511 13:26:52.737087 31578 net.cpp:91] Creating Layer InnerProduct3
I0511 13:26:52.737090 31578 net.cpp:425] InnerProduct3 <- InnerProduct2
I0511 13:26:52.737097 31578 net.cpp:399] InnerProduct3 -> InnerProduct3
I0511 13:26:52.737180 31578 net.cpp:141] Setting up InnerProduct3
I0511 13:26:52.737186 31578 net.cpp:148] Top shape: 1 7 (7)
I0511 13:26:52.737190 31578 net.cpp:156] Memory required for data: 804
I0511 13:26:52.737196 31578 net.cpp:219] InnerProduct3 does not need backward computation.
I0511 13:26:52.737200 31578 net.cpp:219] ReLU2 does not need backward computation.
I0511 13:26:52.737202 31578 net.cpp:219] InnerProduct2 does not need backward computation.
I0511 13:26:52.737205 31578 net.cpp:219] ReLU1 does not need backward computation.
I0511 13:26:52.737207 31578 net.cpp:219] InnerProduct1 does not need backward computation.
I0511 13:26:52.737210 31578 net.cpp:219] Python1 does not need backward computation.
I0511 13:26:52.737212 31578 net.cpp:261] This network produces output InnerProduct3
I0511 13:26:52.737218 31578 net.cpp:274] Network initialization done.
I0511 13:26:52.737228 31578 solver.cpp:181] Creating test net (#1) specified by test_net_param
I0511 13:26:52.737278 31578 net.cpp:49] Initializing net from parameters: 
state {
  phase: TEST
}
layer {
  name: "DummyData1"
  type: "DummyData"
  top: "DummyData1"
  dummy_data_param {
    shape {
      dim: 1
      dim: 26
    }
  }
}
layer {
  name: "InnerProduct1"
  type: "InnerProduct"
  bottom: "DummyData1"
  top: "InnerProduct1"
  inner_product_param {
    num_output: 42
    weight_filler {
      type: "gaussian"
      std: 0.01
    }
    bias_filler {
      type: "constant"
      value: 0
    }
  }
}
layer {
  name: "ReLU1"
  type: "ReLU"
  bottom: "InnerProduct1"
  top: "InnerProduct1"
}
layer {
  name: "InnerProduct2"
  type: "InnerProduct"
  bottom: "InnerProduct1"
  top: "InnerProduct2"
  inner_product_param {
    num_output: 42
    weight_filler {
      type: "gaussian"
      std: 0.01
    }
    bias_filler {
      type: "constant"
      value: 0
    }
  }
}
layer {
  name: "ReLU2"
  type: "ReLU"
  bottom: "InnerProduct2"
  top: "InnerProduct2"
}
layer {
  name: "InnerProduct3"
  type: "InnerProduct"
  bottom: "InnerProduct2"
  top: "InnerProduct3"
  inner_product_param {
    num_output: 7
    weight_filler {
      type: "gaussian"
      std: 0.01
    }
    bias_filler {
      type: "constant"
      value: 0
    }
  }
}
I0511 13:26:52.737300 31578 layer_factory.hpp:77] Creating layer DummyData1
I0511 13:26:52.737306 31578 net.cpp:91] Creating Layer DummyData1
I0511 13:26:52.737309 31578 net.cpp:399] DummyData1 -> DummyData1
I0511 13:26:52.737346 31578 net.cpp:141] Setting up DummyData1
I0511 13:26:52.737354 31578 net.cpp:148] Top shape: 1 26 (26)
I0511 13:26:52.737356 31578 net.cpp:156] Memory required for data: 104
I0511 13:26:52.737360 31578 layer_factory.hpp:77] Creating layer InnerProduct1
I0511 13:26:52.737365 31578 net.cpp:91] Creating Layer InnerProduct1
I0511 13:26:52.737366 31578 net.cpp:425] InnerProduct1 <- DummyData1
I0511 13:26:52.737371 31578 net.cpp:399] InnerProduct1 -> InnerProduct1
I0511 13:26:52.737471 31578 net.cpp:141] Setting up InnerProduct1
I0511 13:26:52.737478 31578 net.cpp:148] Top shape: 1 42 (42)
I0511 13:26:52.737480 31578 net.cpp:156] Memory required for data: 272
I0511 13:26:52.737488 31578 layer_factory.hpp:77] Creating layer ReLU1
I0511 13:26:52.737493 31578 net.cpp:91] Creating Layer ReLU1
I0511 13:26:52.737495 31578 net.cpp:425] ReLU1 <- InnerProduct1
I0511 13:26:52.737499 31578 net.cpp:386] ReLU1 -> InnerProduct1 (in-place)
I0511 13:26:52.737733 31578 net.cpp:141] Setting up ReLU1
I0511 13:26:52.737745 31578 net.cpp:148] Top shape: 1 42 (42)
I0511 13:26:52.737747 31578 net.cpp:156] Memory required for data: 440
I0511 13:26:52.737751 31578 layer_factory.hpp:77] Creating layer InnerProduct2
I0511 13:26:52.737756 31578 net.cpp:91] Creating Layer InnerProduct2
I0511 13:26:52.737758 31578 net.cpp:425] InnerProduct2 <- InnerProduct1
I0511 13:26:52.737763 31578 net.cpp:399] InnerProduct2 -> InnerProduct2
I0511 13:26:52.737891 31578 net.cpp:141] Setting up InnerProduct2
I0511 13:26:52.737898 31578 net.cpp:148] Top shape: 1 42 (42)
I0511 13:26:52.737900 31578 net.cpp:156] Memory required for data: 608
I0511 13:26:52.737907 31578 layer_factory.hpp:77] Creating layer ReLU2
I0511 13:26:52.737913 31578 net.cpp:91] Creating Layer ReLU2
I0511 13:26:52.737916 31578 net.cpp:425] ReLU2 <- InnerProduct2
I0511 13:26:52.737920 31578 net.cpp:386] ReLU2 -> InnerProduct2 (in-place)
I0511 13:26:52.738044 31578 net.cpp:141] Setting up ReLU2
I0511 13:26:52.738052 31578 net.cpp:148] Top shape: 1 42 (42)
I0511 13:26:52.738055 31578 net.cpp:156] Memory required for data: 776
I0511 13:26:52.738059 31578 layer_factory.hpp:77] Creating layer InnerProduct3
I0511 13:26:52.738062 31578 net.cpp:91] Creating Layer InnerProduct3
I0511 13:26:52.738065 31578 net.cpp:425] InnerProduct3 <- InnerProduct2
I0511 13:26:52.738070 31578 net.cpp:399] InnerProduct3 -> InnerProduct3
I0511 13:26:52.738154 31578 net.cpp:141] Setting up InnerProduct3
I0511 13:26:52.738160 31578 net.cpp:148] Top shape: 1 7 (7)
I0511 13:26:52.738163 31578 net.cpp:156] Memory required for data: 804
I0511 13:26:52.738170 31578 net.cpp:219] InnerProduct3 does not need backward computation.
I0511 13:26:52.738173 31578 net.cpp:219] ReLU2 does not need backward computation.
I0511 13:26:52.738176 31578 net.cpp:219] InnerProduct2 does not need backward computation.
I0511 13:26:52.738178 31578 net.cpp:219] ReLU1 does not need backward computation.
…
