…
I0511 15:38:50.109834  1057 solver.cpp:48] Initializing solver from parameters: 
test_iter: 1
test_iter: 1
test_interval: 1000000
base_lr: 0.001
display: 0
lr_policy: "fixed"
momentum: 0.9
weight_decay: 0.005
snapshot_prefix: "python/../experiments/mjc_mdgps_example/policy"
random_seed: 1
train_net_param {
  layer {
    name: "Python1"
    type: "Python"
    top: "Python1"
    top: "Python2"
    top: "Python3"
    python_param {
      module: "policy_layers"
      layer: "PolicyDataLayer"
      param_str: "{\"shape\": [{\"dim\": [25, 26]}, {\"dim\": [25, 7]}, {\"dim\": [25, 7, 7]}]}"
    }
  }
  layer {
    name: "InnerProduct1"
    type: "InnerProduct"
    bottom: "Python1"
    top: "InnerProduct1"
    inner_product_param {
      num_output: 42
      weight_filler {
        type: "gaussian"
        std: 0.01
      }
      bias_filler {
        type: "constant"
        value: 0
      }
    }
  }
  layer {
    name: "ReLU1"
    type: "ReLU"
    bottom: "InnerProduct1"
    top: "InnerProduct1"
  }
  layer {
    name: "InnerProduct2"
    type: "InnerProduct"
    bottom: "InnerProduct1"
    top: "InnerProduct2"
    inner_product_param {
      num_output: 42
      weight_filler {
        type: "gaussian"
        std: 0.01
      }
      bias_filler {
        type: "constant"
        value: 0
      }
    }
  }
  layer {
    name: "ReLU2"
    type: "ReLU"
    bottom: "InnerProduct2"
    top: "InnerProduct2"
  }
  layer {
    name: "InnerProduct3"
    type: "InnerProduct"
    bottom: "InnerProduct2"
    top: "InnerProduct3"
    inner_product_param {
      num_output: 7
      weight_filler {
        type: "gaussian"
        std: 0.01
      }
      bias_filler {
        type: "constant"
        value: 0
      }
    }
  }
  layer {
    name: "Python4"
    type: "Python"
    bottom: "InnerProduct3"
    bottom: "Python2"
    bottom: "Python3"
    top: "Python4"
    loss_weight: 1
    python_param {
      module: "policy_layers"
      layer: "WeightedEuclideanLoss"
    }
  }
}
test_net_param {
  layer {
    name: "Python1"
    type: "Python"
    top: "Python1"
    python_param {
      module: "policy_layers"
      layer: "PolicyDataLayer"
      param_str: "{\"shape\": [{\"dim\": [1, 26]}]}"
    }
  }
  layer {
    name: "InnerProduct1"
    type: "InnerProduct"
    bottom: "Python1"
    top: "InnerProduct1"
    inner_product_param {
      num_output: 42
      weight_filler {
        type: "gaussian"
        std: 0.01
      }
      bias_filler {
        type: "constant"
        value: 0
      }
    }
  }
  layer {
    name: "ReLU1"
    type: "ReLU"
    bottom: "InnerProduct1"
    top: "InnerProduct1"
  }
  layer {
    name: "InnerProduct2"
    type: "InnerProduct"
    bottom: "InnerProduct1"
    top: "InnerProduct2"
    inner_product_param {
      num_output: 42
      weight_filler {
        type: "gaussian"
        std: 0.01
      }
      bias_filler {
        type: "constant"
        value: 0
      }
    }
  }
  layer {
    name: "ReLU2"
    type: "ReLU"
    bottom: "InnerProduct2"
    top: "InnerProduct2"
  }
  layer {
    name: "InnerProduct3"
    type: "InnerProduct"
    bottom: "InnerProduct2"
    top: "InnerProduct3"
    inner_product_param {
      num_output: 7
      weight_filler {
        type: "gaussian"
        std: 0.01
      }
      bias_filler {
        type: "constant"
        value: 0
      }
    }
  }
}
test_net_param {
  layer {
    name: "DummyData1"
    type: "DummyData"
    top: "DummyData1"
    dummy_data_param {
      shape {
        dim: 1
        dim: 26
      }
    }
  }
  layer {
    name: "InnerProduct1"
    type: "InnerProduct"
    bottom: "DummyData1"
    top: "InnerProduct1"
    inner_product_param {
      num_output: 42
      weight_filler {
        type: "gaussian"
        std: 0.01
      }
      bias_filler {
        type: "constant"
        value: 0
      }
    }
  }
  layer {
    name: "ReLU1"
    type: "ReLU"
    bottom: "InnerProduct1"
    top: "InnerProduct1"
  }
  layer {
    name: "InnerProduct2"
    type: "InnerProduct"
    bottom: "InnerProduct1"
    top: "InnerProduct2"
    inner_product_param {
      num_output: 42
      weight_filler {
        type: "gaussian"
        std: 0.01
      }
      bias_filler {
        type: "constant"
        value: 0
      }
    }
  }
  layer {
    name: "ReLU2"
    type: "ReLU"
    bottom: "InnerProduct2"
    top: "InnerProduct2"
  }
  layer {
    name: "InnerProduct3"
    type: "InnerProduct"
    bottom: "InnerProduct2"
    top: "InnerProduct3"
    inner_product_param {
      num_output: 7
      weight_filler {
        type: "gaussian"
        std: 0.01
      }
      bias_filler {
        type: "constant"
        value: 0
      }
    }
  }
}
type: "Adam"
I0511 15:38:50.109884  1057 solver.cpp:77] Creating training net specified in train_net_param.
I0511 15:38:50.109940  1057 net.cpp:49] Initializing net from parameters: 
state {
  phase: TRAIN
}
layer {
  name: "Python1"
  type: "Python"
  top: "Python1"
  top: "Python2"
  top: "Python3"
  python_param {
    module: "policy_layers"
    layer: "PolicyDataLayer"
    param_str: "{\"shape\": [{\"dim\": [25, 26]}, {\"dim\": [25, 7]}, {\"dim\": [25, 7, 7]}]}"
  }
}
layer {
  name: "InnerProduct1"
  type: "InnerProduct"
  bottom: "Python1"
  top: "InnerProduct1"
  inner_product_param {
    num_output: 42
    weight_filler {
      type: "gaussian"
      std: 0.01
    }
    bias_filler {
      type: "constant"
      value: 0
    }
  }
}
layer {
  name: "ReLU1"
  type: "ReLU"
  bottom: "InnerProduct1"
  top: "InnerProduct1"
}
layer {
  name: "InnerProduct2"
  type: "InnerProduct"
  bottom: "InnerProduct1"
  top: "InnerProduct2"
  inner_product_param {
    num_output: 42
    weight_filler {
      type: "gaussian"
      std: 0.01
    }
    bias_filler {
      type: "constant"
      value: 0
    }
  }
}
layer {
  name: "ReLU2"
  type: "ReLU"
  bottom: "InnerProduct2"
  top: "InnerProduct2"
}
layer {
  name: "InnerProduct3"
  type: "InnerProduct"
  bottom: "InnerProduct2"
  top: "InnerProduct3"
  inner_product_param {
    num_output: 7
    weight_filler {
      type: "gaussian"
      std: 0.01
    }
    bias_filler {
      type: "constant"
      value: 0
    }
  }
}
layer {
  name: "Python4"
  type: "Python"
  bottom: "InnerProduct3"
  bottom: "Python2"
  bottom: "Python3"
  top: "Python4"
  loss_weight: 1
  python_param {
    module: "policy_layers"
    layer: "WeightedEuclideanLoss"
  }
}
I0511 15:38:50.109968  1057 layer_factory.hpp:77] Creating layer Python1
I0511 15:38:50.110165  1057 net.cpp:91] Creating Layer Python1
I0511 15:38:50.110175  1057 net.cpp:399] Python1 -> Python1
I0511 15:38:50.110183  1057 net.cpp:399] Python1 -> Python2
I0511 15:38:50.110188  1057 net.cpp:399] Python1 -> Python3
I0511 15:38:50.116658  1057 net.cpp:141] Setting up Python1
I0511 15:38:50.116685  1057 net.cpp:148] Top shape: 25 26 (650)
I0511 15:38:50.116689  1057 net.cpp:148] Top shape: 25 7 (175)
I0511 15:38:50.116693  1057 net.cpp:148] Top shape: 25 7 7 (1225)
I0511 15:38:50.116695  1057 net.cpp:156] Memory required for data: 8200
I0511 15:38:50.116700  1057 layer_factory.hpp:77] Creating layer InnerProduct1
I0511 15:38:50.116714  1057 net.cpp:91] Creating Layer InnerProduct1
I0511 15:38:50.116717  1057 net.cpp:425] InnerProduct1 <- Python1
I0511 15:38:50.116722  1057 net.cpp:399] InnerProduct1 -> InnerProduct1
I0511 15:38:50.117177  1057 net.cpp:141] Setting up InnerProduct1
I0511 15:38:50.117199  1057 net.cpp:148] Top shape: 25 42 (1050)
I0511 15:38:50.117202  1057 net.cpp:156] Memory required for data: 12400
I0511 15:38:50.117210  1057 layer_factory.hpp:77] Creating layer ReLU1
I0511 15:38:50.117216  1057 net.cpp:91] Creating Layer ReLU1
I0511 15:38:50.117219  1057 net.cpp:425] ReLU1 <- InnerProduct1
I0511 15:38:50.117224  1057 net.cpp:386] ReLU1 -> InnerProduct1 (in-place)
I0511 15:38:50.236691  1057 net.cpp:141] Setting up ReLU1
I0511 15:38:50.236717  1057 net.cpp:148] Top shape: 25 42 (1050)
I0511 15:38:50.236721  1057 net.cpp:156] Memory required for data: 16600
I0511 15:38:50.236726  1057 layer_factory.hpp:77] Creating layer InnerProduct2
I0511 15:38:50.236737  1057 net.cpp:91] Creating Layer InnerProduct2
I0511 15:38:50.236740  1057 net.cpp:425] InnerProduct2 <- InnerProduct1
I0511 15:38:50.236747  1057 net.cpp:399] InnerProduct2 -> InnerProduct2
I0511 15:38:50.236912  1057 net.cpp:141] Setting up InnerProduct2
I0511 15:38:50.236919  1057 net.cpp:148] Top shape: 25 42 (1050)
I0511 15:38:50.236922  1057 net.cpp:156] Memory required for data: 20800
I0511 15:38:50.236932  1057 layer_factory.hpp:77] Creating layer ReLU2
I0511 15:38:50.236937  1057 net.cpp:91] Creating Layer ReLU2
I0511 15:38:50.236940  1057 net.cpp:425] ReLU2 <- InnerProduct2
I0511 15:38:50.236944  1057 net.cpp:386] ReLU2 -> InnerProduct2 (in-place)
I0511 15:38:50.237063  1057 net.cpp:141] Setting up ReLU2
I0511 15:38:50.237071  1057 net.cpp:148] Top shape: 25 42 (1050)
I0511 15:38:50.237073  1057 net.cpp:156] Memory required for data: 25000
I0511 15:38:50.237076  1057 layer_factory.hpp:77] Creating layer InnerProduct3
I0511 15:38:50.237082  1057 net.cpp:91] Creating Layer InnerProduct3
I0511 15:38:50.237084  1057 net.cpp:425] InnerProduct3 <- InnerProduct2
I0511 15:38:50.237089  1057 net.cpp:399] InnerProduct3 -> InnerProduct3
I0511 15:38:50.237519  1057 net.cpp:141] Setting up InnerProduct3
I0511 15:38:50.237540  1057 net.cpp:148] Top shape: 25 7 (175)
I0511 15:38:50.237541  1057 net.cpp:156] Memory required for data: 25700
I0511 15:38:50.237550  1057 layer_factory.hpp:77] Creating layer Python4
I0511 15:38:50.237596  1057 net.cpp:91] Creating Layer Python4
I0511 15:38:50.237601  1057 net.cpp:425] Python4 <- InnerProduct3
I0511 15:38:50.237606  1057 net.cpp:425] Python4 <- Python2
I0511 15:38:50.237608  1057 net.cpp:425] Python4 <- Python3
I0511 15:38:50.237612  1057 net.cpp:399] Python4 -> Python4
I0511 15:38:50.237663  1057 net.cpp:141] Setting up Python4
I0511 15:38:50.237671  1057 net.cpp:148] Top shape: 1 (1)
I0511 15:38:50.237674  1057 net.cpp:151]     with loss weight 1
I0511 15:38:50.237681  1057 net.cpp:156] Memory required for data: 25704
I0511 15:38:50.237684  1057 net.cpp:217] Python4 needs backward computation.
I0511 15:38:50.237689  1057 net.cpp:217] InnerProduct3 needs backward computation.
I0511 15:38:50.237691  1057 net.cpp:217] ReLU2 needs backward computation.
I0511 15:38:50.237694  1057 net.cpp:217] InnerProduct2 needs backward computation.
I0511 15:38:50.237697  1057 net.cpp:217] ReLU1 needs backward computation.
I0511 15:38:50.237699  1057 net.cpp:217] InnerProduct1 needs backward computation.
I0511 15:38:50.237702  1057 net.cpp:219] Python1 does not need backward computation.
I0511 15:38:50.237705  1057 net.cpp:261] This network produces output Python4
I0511 15:38:50.237711  1057 net.cpp:274] Network initialization done.
I0511 15:38:50.237747  1057 solver.cpp:181] Creating test net (#0) specified by test_net_param
I0511 15:38:50.237805  1057 net.cpp:49] Initializing net from parameters: 
state {
  phase: TEST
}
layer {
  name: "Python1"
  type: "Python"
  top: "Python1"
  python_param {
    module: "policy_layers"
    layer: "PolicyDataLayer"
    param_str: "{\"shape\": [{\"dim\": [1, 26]}]}"
  }
}
layer {
  name: "InnerProduct1"
  type: "InnerProduct"
  bottom: "Python1"
  top: "InnerProduct1"
  inner_product_param {
    num_output: 42
    weight_filler {
      type: "gaussian"
      std: 0.01
    }
    bias_filler {
      type: "constant"
      value: 0
    }
  }
}
layer {
  name: "ReLU1"
  type: "ReLU"
  bottom: "InnerProduct1"
  top: "InnerProduct1"
}
layer {
  name: "InnerProduct2"
  type: "InnerProduct"
  bottom: "InnerProduct1"
  top: "InnerProduct2"
  inner_product_param {
    num_output: 42
    weight_filler {
      type: "gaussian"
      std: 0.01
    }
    bias_filler {
      type: "constant"
      value: 0
    }
  }
}
layer {
  name: "ReLU2"
  type: "ReLU"
  bottom: "InnerProduct2"
  top: "InnerProduct2"
}
layer {
  name: "InnerProduct3"
  type: "InnerProduct"
  bottom: "InnerProduct2"
  top: "InnerProduct3"
  inner_product_param {
    num_output: 7
    weight_filler {
      type: "gaussian"
      std: 0.01
    }
    bias_filler {
      type: "constant"
      value: 0
    }
  }
}
I0511 15:38:50.237829  1057 layer_factory.hpp:77] Creating layer Python1
I0511 15:38:50.237848  1057 net.cpp:91] Creating Layer Python1
I0511 15:38:50.237854  1057 net.cpp:399] Python1 -> Python1
I0511 15:38:50.237920  1057 net.cpp:141] Setting up Python1
I0511 15:38:50.237929  1057 net.cpp:148] Top shape: 1 26 (26)
I0511 15:38:50.237932  1057 net.cpp:156] Memory required for data: 104
I0511 15:38:50.237936  1057 layer_factory.hpp:77] Creating layer InnerProduct1
I0511 15:38:50.237941  1057 net.cpp:91] Creating Layer InnerProduct1
I0511 15:38:50.237944  1057 net.cpp:425] InnerProduct1 <- Python1
I0511 15:38:50.237949  1057 net.cpp:399] InnerProduct1 -> InnerProduct1
I0511 15:38:50.238049  1057 net.cpp:141] Setting up InnerProduct1
I0511 15:38:50.238057  1057 net.cpp:148] Top shape: 1 42 (42)
I0511 15:38:50.238060  1057 net.cpp:156] Memory required for data: 272
I0511 15:38:50.238067  1057 layer_factory.hpp:77] Creating layer ReLU1
I0511 15:38:50.238072  1057 net.cpp:91] Creating Layer ReLU1
I0511 15:38:50.238075  1057 net.cpp:425] ReLU1 <- InnerProduct1
I0511 15:38:50.238078  1057 net.cpp:386] ReLU1 -> InnerProduct1 (in-place)
I0511 15:38:50.238309  1057 net.cpp:141] Setting up ReLU1
I0511 15:38:50.238319  1057 net.cpp:148] Top shape: 1 42 (42)
I0511 15:38:50.238322  1057 net.cpp:156] Memory required for data: 440
I0511 15:38:50.238325  1057 layer_factory.hpp:77] Creating layer InnerProduct2
I0511 15:38:50.238332  1057 net.cpp:91] Creating Layer InnerProduct2
I0511 15:38:50.238335  1057 net.cpp:425] InnerProduct2 <- InnerProduct1
I0511 15:38:50.238339  1057 net.cpp:399] InnerProduct2 -> InnerProduct2
I0511 15:38:50.238462  1057 net.cpp:141] Setting up InnerProduct2
I0511 15:38:50.238469  1057 net.cpp:148] Top shape: 1 42 (42)
I0511 15:38:50.238472  1057 net.cpp:156] Memory required for data: 608
I0511 15:38:50.238478  1057 layer_factory.hpp:77] Creating layer ReLU2
I0511 15:38:50.238483  1057 net.cpp:91] Creating Layer ReLU2
I0511 15:38:50.238487  1057 net.cpp:425] ReLU2 <- InnerProduct2
I0511 15:38:50.238489  1057 net.cpp:386] ReLU2 -> InnerProduct2 (in-place)
I0511 15:38:50.238607  1057 net.cpp:141] Setting up ReLU2
I0511 15:38:50.238615  1057 net.cpp:148] Top shape: 1 42 (42)
I0511 15:38:50.238620  1057 net.cpp:156] Memory required for data: 776
I0511 15:38:50.238621  1057 layer_factory.hpp:77] Creating layer InnerProduct3
I0511 15:38:50.238626  1057 net.cpp:91] Creating Layer InnerProduct3
I0511 15:38:50.238629  1057 net.cpp:425] InnerProduct3 <- InnerProduct2
I0511 15:38:50.238633  1057 net.cpp:399] InnerProduct3 -> InnerProduct3
I0511 15:38:50.238713  1057 net.cpp:141] Setting up InnerProduct3
I0511 15:38:50.238719  1057 net.cpp:148] Top shape: 1 7 (7)
I0511 15:38:50.238723  1057 net.cpp:156] Memory required for data: 804
I0511 15:38:50.238729  1057 net.cpp:219] InnerProduct3 does not need backward computation.
I0511 15:38:50.238732  1057 net.cpp:219] ReLU2 does not need backward computation.
I0511 15:38:50.238734  1057 net.cpp:219] InnerProduct2 does not need backward computation.
I0511 15:38:50.238737  1057 net.cpp:219] ReLU1 does not need backward computation.
I0511 15:38:50.238740  1057 net.cpp:219] InnerProduct1 does not need backward computation.
I0511 15:38:50.238744  1057 net.cpp:219] Python1 does not need backward computation.
I0511 15:38:50.238745  1057 net.cpp:261] This network produces output InnerProduct3
I0511 15:38:50.238750  1057 net.cpp:274] Network initialization done.
I0511 15:38:50.238760  1057 solver.cpp:181] Creating test net (#1) specified by test_net_param
I0511 15:38:50.238808  1057 net.cpp:49] Initializing net from parameters: 
state {
  phase: TEST
}
layer {
  name: "DummyData1"
  type: "DummyData"
  top: "DummyData1"
  dummy_data_param {
    shape {
      dim: 1
      dim: 26
    }
  }
}
layer {
  name: "InnerProduct1"
  type: "InnerProduct"
  bottom: "DummyData1"
  top: "InnerProduct1"
  inner_product_param {
    num_output: 42
    weight_filler {
      type: "gaussian"
      std: 0.01
    }
    bias_filler {
      type: "constant"
      value: 0
    }
  }
}
layer {
  name: "ReLU1"
  type: "ReLU"
  bottom: "InnerProduct1"
  top: "InnerProduct1"
}
layer {
  name: "InnerProduct2"
  type: "InnerProduct"
  bottom: "InnerProduct1"
  top: "InnerProduct2"
  inner_product_param {
    num_output: 42
    weight_filler {
      type: "gaussian"
      std: 0.01
    }
    bias_filler {
      type: "constant"
      value: 0
    }
  }
}
layer {
  name: "ReLU2"
  type: "ReLU"
  bottom: "InnerProduct2"
  top: "InnerProduct2"
}
layer {
  name: "InnerProduct3"
  type: "InnerProduct"
  bottom: "InnerProduct2"
  top: "InnerProduct3"
  inner_product_param {
    num_output: 7
    weight_filler {
      type: "gaussian"
      std: 0.01
    }
    bias_filler {
      type: "constant"
      value: 0
    }
  }
}
I0511 15:38:50.238828  1057 layer_factory.hpp:77] Creating layer DummyData1
I0511 15:38:50.238839  1057 net.cpp:91] Creating Layer DummyData1
I0511 15:38:50.238842  1057 net.cpp:399] DummyData1 -> DummyData1
I0511 15:38:50.238875  1057 net.cpp:141] Setting up DummyData1
I0511 15:38:50.238883  1057 net.cpp:148] Top shape: 1 26 (26)
I0511 15:38:50.238885  1057 net.cpp:156] Memory required for data: 104
I0511 15:38:50.238888  1057 layer_factory.hpp:77] Creating layer InnerProduct1
I0511 15:38:50.238893  1057 net.cpp:91] Creating Layer InnerProduct1
I0511 15:38:50.238896  1057 net.cpp:425] InnerProduct1 <- DummyData1
I0511 15:38:50.238900  1057 net.cpp:399] InnerProduct1 -> InnerProduct1
I0511 15:38:50.238997  1057 net.cpp:141] Setting up InnerProduct1
I0511 15:38:50.239003  1057 net.cpp:148] Top shape: 1 42 (42)
I0511 15:38:50.239006  1057 net.cpp:156] Memory required for data: 272
I0511 15:38:50.239013  1057 layer_factory.hpp:77] Creating layer ReLU1
I0511 15:38:50.239017  1057 net.cpp:91] Creating Layer ReLU1
I0511 15:38:50.239020  1057 net.cpp:425] ReLU1 <- InnerProduct1
I0511 15:38:50.239024  1057 net.cpp:386] ReLU1 -> InnerProduct1 (in-place)
I0511 15:38:50.239248  1057 net.cpp:141] Setting up ReLU1
I0511 15:38:50.239259  1057 net.cpp:148] Top shape: 1 42 (42)
I0511 15:38:50.239261  1057 net.cpp:156] Memory required for data: 440
I0511 15:38:50.239264  1057 layer_factory.hpp:77] Creating layer InnerProduct2
I0511 15:38:50.239269  1057 net.cpp:91] Creating Layer InnerProduct2
I0511 15:38:50.239272  1057 net.cpp:425] InnerProduct2 <- InnerProduct1
I0511 15:38:50.239276  1057 net.cpp:399] InnerProduct2 -> InnerProduct2
I0511 15:38:50.239399  1057 net.cpp:141] Setting up InnerProduct2
I0511 15:38:50.239408  1057 net.cpp:148] Top shape: 1 42 (42)
I0511 15:38:50.239410  1057 net.cpp:156] Memory required for data: 608
I0511 15:38:50.239416  1057 layer_factory.hpp:77] Creating layer ReLU2
I0511 15:38:50.239421  1057 net.cpp:91] Creating Layer ReLU2
I0511 15:38:50.239424  1057 net.cpp:425] ReLU2 <- InnerProduct2
I0511 15:38:50.239428  1057 net.cpp:386] ReLU2 -> InnerProduct2 (in-place)
I0511 15:38:50.239542  1057 net.cpp:141] Setting up ReLU2
I0511 15:38:50.239548  1057 net.cpp:148] Top shape: 1 42 (42)
I0511 15:38:50.239552  1057 net.cpp:156] Memory required for data: 776
I0511 15:38:50.239554  1057 layer_factory.hpp:77] Creating layer InnerProduct3
I0511 15:38:50.239558  1057 net.cpp:91] Creating Layer InnerProduct3
I0511 15:38:50.239562  1057 net.cpp:425] InnerProduct3 <- InnerProduct2
I0511 15:38:50.239565  1057 net.cpp:399] InnerProduct3 -> InnerProduct3
I0511 15:38:50.239644  1057 net.cpp:141] Setting up InnerProduct3
I0511 15:38:50.239650  1057 net.cpp:148] Top shape: 1 7 (7)
I0511 15:38:50.239652  1057 net.cpp:156] Memory required for data: 804
I0511 15:38:50.239660  1057 net.cpp:219] InnerProduct3 does not need backward computation.
I0511 15:38:50.239662  1057 net.cpp:219] ReLU2 does not need backward computation.
I0511 15:38:50.239665  1057 net.cpp:219] InnerProduct2 does not need backward computation.
I0511 15:38:50.239667  1057 net.cpp:219] ReLU1 does not need backward computation.
…
