…
I0511 15:14:24.616917   737 solver.cpp:48] Initializing solver from parameters: 
test_iter: 1
test_iter: 1
test_interval: 1000000
base_lr: 0.001
display: 0
lr_policy: "fixed"
momentum: 0.9
weight_decay: 0.005
snapshot_prefix: "python/../experiments/mjc_mdgps_example/policy"
random_seed: 1
train_net_param {
  layer {
    name: "Python1"
    type: "Python"
    top: "Python1"
    top: "Python2"
    top: "Python3"
    python_param {
      module: "policy_layers"
      layer: "PolicyDataLayer"
      param_str: "{\"shape\": [{\"dim\": [25, 26]}, {\"dim\": [25, 7]}, {\"dim\": [25, 7, 7]}]}"
    }
  }
  layer {
    name: "InnerProduct1"
    type: "InnerProduct"
    bottom: "Python1"
    top: "InnerProduct1"
    inner_product_param {
      num_output: 42
      weight_filler {
        type: "gaussian"
        std: 0.01
      }
      bias_filler {
        type: "constant"
        value: 0
      }
    }
  }
  layer {
    name: "ReLU1"
    type: "ReLU"
    bottom: "InnerProduct1"
    top: "InnerProduct1"
  }
  layer {
    name: "InnerProduct2"
    type: "InnerProduct"
    bottom: "InnerProduct1"
    top: "InnerProduct2"
    inner_product_param {
      num_output: 42
      weight_filler {
        type: "gaussian"
        std: 0.01
      }
      bias_filler {
        type: "constant"
        value: 0
      }
    }
  }
  layer {
    name: "ReLU2"
    type: "ReLU"
    bottom: "InnerProduct2"
    top: "InnerProduct2"
  }
  layer {
    name: "InnerProduct3"
    type: "InnerProduct"
    bottom: "InnerProduct2"
    top: "InnerProduct3"
    inner_product_param {
      num_output: 7
      weight_filler {
        type: "gaussian"
        std: 0.01
      }
      bias_filler {
        type: "constant"
        value: 0
      }
    }
  }
  layer {
    name: "Python4"
    type: "Python"
    bottom: "InnerProduct3"
    bottom: "Python2"
    bottom: "Python3"
    top: "Python4"
    loss_weight: 1
    python_param {
      module: "policy_layers"
      layer: "WeightedEuclideanLoss"
    }
  }
}
test_net_param {
  layer {
    name: "Python1"
    type: "Python"
    top: "Python1"
    python_param {
      module: "policy_layers"
      layer: "PolicyDataLayer"
      param_str: "{\"shape\": [{\"dim\": [1, 26]}]}"
    }
  }
  layer {
    name: "InnerProduct1"
    type: "InnerProduct"
    bottom: "Python1"
    top: "InnerProduct1"
    inner_product_param {
      num_output: 42
      weight_filler {
        type: "gaussian"
        std: 0.01
      }
      bias_filler {
        type: "constant"
        value: 0
      }
    }
  }
  layer {
    name: "ReLU1"
    type: "ReLU"
    bottom: "InnerProduct1"
    top: "InnerProduct1"
  }
  layer {
    name: "InnerProduct2"
    type: "InnerProduct"
    bottom: "InnerProduct1"
    top: "InnerProduct2"
    inner_product_param {
      num_output: 42
      weight_filler {
        type: "gaussian"
        std: 0.01
      }
      bias_filler {
        type: "constant"
        value: 0
      }
    }
  }
  layer {
    name: "ReLU2"
    type: "ReLU"
    bottom: "InnerProduct2"
    top: "InnerProduct2"
  }
  layer {
    name: "InnerProduct3"
    type: "InnerProduct"
    bottom: "InnerProduct2"
    top: "InnerProduct3"
    inner_product_param {
      num_output: 7
      weight_filler {
        type: "gaussian"
        std: 0.01
      }
      bias_filler {
        type: "constant"
        value: 0
      }
    }
  }
}
test_net_param {
  layer {
    name: "DummyData1"
    type: "DummyData"
    top: "DummyData1"
    dummy_data_param {
      shape {
        dim: 1
        dim: 26
      }
    }
  }
  layer {
    name: "InnerProduct1"
    type: "InnerProduct"
    bottom: "DummyData1"
    top: "InnerProduct1"
    inner_product_param {
      num_output: 42
      weight_filler {
        type: "gaussian"
        std: 0.01
      }
      bias_filler {
        type: "constant"
        value: 0
      }
    }
  }
  layer {
    name: "ReLU1"
    type: "ReLU"
    bottom: "InnerProduct1"
    top: "InnerProduct1"
  }
  layer {
    name: "InnerProduct2"
    type: "InnerProduct"
    bottom: "InnerProduct1"
    top: "InnerProduct2"
    inner_product_param {
      num_output: 42
      weight_filler {
        type: "gaussian"
        std: 0.01
      }
      bias_filler {
        type: "constant"
        value: 0
      }
    }
  }
  layer {
    name: "ReLU2"
    type: "ReLU"
    bottom: "InnerProduct2"
    top: "InnerProduct2"
  }
  layer {
    name: "InnerProduct3"
    type: "InnerProduct"
    bottom: "InnerProduct2"
    top: "InnerProduct3"
    inner_product_param {
      num_output: 7
      weight_filler {
        type: "gaussian"
        std: 0.01
      }
      bias_filler {
        type: "constant"
        value: 0
      }
    }
  }
}
type: "Adam"
I0511 15:14:24.616961   737 solver.cpp:77] Creating training net specified in train_net_param.
I0511 15:14:24.617015   737 net.cpp:49] Initializing net from parameters: 
state {
  phase: TRAIN
}
layer {
  name: "Python1"
  type: "Python"
  top: "Python1"
  top: "Python2"
  top: "Python3"
  python_param {
    module: "policy_layers"
    layer: "PolicyDataLayer"
    param_str: "{\"shape\": [{\"dim\": [25, 26]}, {\"dim\": [25, 7]}, {\"dim\": [25, 7, 7]}]}"
  }
}
layer {
  name: "InnerProduct1"
  type: "InnerProduct"
  bottom: "Python1"
  top: "InnerProduct1"
  inner_product_param {
    num_output: 42
    weight_filler {
      type: "gaussian"
      std: 0.01
    }
    bias_filler {
      type: "constant"
      value: 0
    }
  }
}
layer {
  name: "ReLU1"
  type: "ReLU"
  bottom: "InnerProduct1"
  top: "InnerProduct1"
}
layer {
  name: "InnerProduct2"
  type: "InnerProduct"
  bottom: "InnerProduct1"
  top: "InnerProduct2"
  inner_product_param {
    num_output: 42
    weight_filler {
      type: "gaussian"
      std: 0.01
    }
    bias_filler {
      type: "constant"
      value: 0
    }
  }
}
layer {
  name: "ReLU2"
  type: "ReLU"
  bottom: "InnerProduct2"
  top: "InnerProduct2"
}
layer {
  name: "InnerProduct3"
  type: "InnerProduct"
  bottom: "InnerProduct2"
  top: "InnerProduct3"
  inner_product_param {
    num_output: 7
    weight_filler {
      type: "gaussian"
      std: 0.01
    }
    bias_filler {
      type: "constant"
      value: 0
    }
  }
}
layer {
  name: "Python4"
  type: "Python"
  bottom: "InnerProduct3"
  bottom: "Python2"
  bottom: "Python3"
  top: "Python4"
  loss_weight: 1
  python_param {
    module: "policy_layers"
    layer: "WeightedEuclideanLoss"
  }
}
I0511 15:14:24.617048   737 layer_factory.hpp:77] Creating layer Python1
I0511 15:14:24.617266   737 net.cpp:91] Creating Layer Python1
I0511 15:14:24.617277   737 net.cpp:399] Python1 -> Python1
I0511 15:14:24.617286   737 net.cpp:399] Python1 -> Python2
I0511 15:14:24.617292   737 net.cpp:399] Python1 -> Python3
I0511 15:14:24.624263   737 net.cpp:141] Setting up Python1
I0511 15:14:24.624289   737 net.cpp:148] Top shape: 25 26 (650)
I0511 15:14:24.624294   737 net.cpp:148] Top shape: 25 7 (175)
I0511 15:14:24.624297   737 net.cpp:148] Top shape: 25 7 7 (1225)
I0511 15:14:24.624300   737 net.cpp:156] Memory required for data: 8200
I0511 15:14:24.624305   737 layer_factory.hpp:77] Creating layer InnerProduct1
I0511 15:14:24.624317   737 net.cpp:91] Creating Layer InnerProduct1
I0511 15:14:24.624320   737 net.cpp:425] InnerProduct1 <- Python1
I0511 15:14:24.624326   737 net.cpp:399] InnerProduct1 -> InnerProduct1
I0511 15:14:24.624788   737 net.cpp:141] Setting up InnerProduct1
I0511 15:14:24.624799   737 net.cpp:148] Top shape: 25 42 (1050)
I0511 15:14:24.624802   737 net.cpp:156] Memory required for data: 12400
I0511 15:14:24.624814   737 layer_factory.hpp:77] Creating layer ReLU1
I0511 15:14:24.624819   737 net.cpp:91] Creating Layer ReLU1
I0511 15:14:24.624822   737 net.cpp:425] ReLU1 <- InnerProduct1
I0511 15:14:24.624830   737 net.cpp:386] ReLU1 -> InnerProduct1 (in-place)
I0511 15:14:24.745069   737 net.cpp:141] Setting up ReLU1
I0511 15:14:24.745103   737 net.cpp:148] Top shape: 25 42 (1050)
I0511 15:14:24.745106   737 net.cpp:156] Memory required for data: 16600
I0511 15:14:24.745112   737 layer_factory.hpp:77] Creating layer InnerProduct2
I0511 15:14:24.745123   737 net.cpp:91] Creating Layer InnerProduct2
I0511 15:14:24.745127   737 net.cpp:425] InnerProduct2 <- InnerProduct1
I0511 15:14:24.745133   737 net.cpp:399] InnerProduct2 -> InnerProduct2
I0511 15:14:24.745283   737 net.cpp:141] Setting up InnerProduct2
I0511 15:14:24.745292   737 net.cpp:148] Top shape: 25 42 (1050)
I0511 15:14:24.745296   737 net.cpp:156] Memory required for data: 20800
I0511 15:14:24.745304   737 layer_factory.hpp:77] Creating layer ReLU2
I0511 15:14:24.745311   737 net.cpp:91] Creating Layer ReLU2
I0511 15:14:24.745318   737 net.cpp:425] ReLU2 <- InnerProduct2
I0511 15:14:24.745322   737 net.cpp:386] ReLU2 -> InnerProduct2 (in-place)
I0511 15:14:24.745442   737 net.cpp:141] Setting up ReLU2
I0511 15:14:24.745450   737 net.cpp:148] Top shape: 25 42 (1050)
I0511 15:14:24.745453   737 net.cpp:156] Memory required for data: 25000
I0511 15:14:24.745456   737 layer_factory.hpp:77] Creating layer InnerProduct3
I0511 15:14:24.745461   737 net.cpp:91] Creating Layer InnerProduct3
I0511 15:14:24.745465   737 net.cpp:425] InnerProduct3 <- InnerProduct2
I0511 15:14:24.745470   737 net.cpp:399] InnerProduct3 -> InnerProduct3
I0511 15:14:24.745901   737 net.cpp:141] Setting up InnerProduct3
I0511 15:14:24.745921   737 net.cpp:148] Top shape: 25 7 (175)
I0511 15:14:24.745924   737 net.cpp:156] Memory required for data: 25700
I0511 15:14:24.745932   737 layer_factory.hpp:77] Creating layer Python4
I0511 15:14:24.745980   737 net.cpp:91] Creating Layer Python4
I0511 15:14:24.745985   737 net.cpp:425] Python4 <- InnerProduct3
I0511 15:14:24.745990   737 net.cpp:425] Python4 <- Python2
I0511 15:14:24.745993   737 net.cpp:425] Python4 <- Python3
I0511 15:14:24.745997   737 net.cpp:399] Python4 -> Python4
I0511 15:14:24.746048   737 net.cpp:141] Setting up Python4
I0511 15:14:24.746057   737 net.cpp:148] Top shape: 1 (1)
I0511 15:14:24.746060   737 net.cpp:151]     with loss weight 1
I0511 15:14:24.746068   737 net.cpp:156] Memory required for data: 25704
I0511 15:14:24.746071   737 net.cpp:217] Python4 needs backward computation.
I0511 15:14:24.746075   737 net.cpp:217] InnerProduct3 needs backward computation.
I0511 15:14:24.746078   737 net.cpp:217] ReLU2 needs backward computation.
I0511 15:14:24.746080   737 net.cpp:217] InnerProduct2 needs backward computation.
I0511 15:14:24.746083   737 net.cpp:217] ReLU1 needs backward computation.
I0511 15:14:24.746086   737 net.cpp:217] InnerProduct1 needs backward computation.
I0511 15:14:24.746089   737 net.cpp:219] Python1 does not need backward computation.
I0511 15:14:24.746093   737 net.cpp:261] This network produces output Python4
I0511 15:14:24.746098   737 net.cpp:274] Network initialization done.
I0511 15:14:24.746135   737 solver.cpp:181] Creating test net (#0) specified by test_net_param
I0511 15:14:24.746193   737 net.cpp:49] Initializing net from parameters: 
state {
  phase: TEST
}
layer {
  name: "Python1"
  type: "Python"
  top: "Python1"
  python_param {
    module: "policy_layers"
    layer: "PolicyDataLayer"
    param_str: "{\"shape\": [{\"dim\": [1, 26]}]}"
  }
}
layer {
  name: "InnerProduct1"
  type: "InnerProduct"
  bottom: "Python1"
  top: "InnerProduct1"
  inner_product_param {
    num_output: 42
    weight_filler {
      type: "gaussian"
      std: 0.01
    }
    bias_filler {
      type: "constant"
      value: 0
    }
  }
}
layer {
  name: "ReLU1"
  type: "ReLU"
  bottom: "InnerProduct1"
  top: "InnerProduct1"
}
layer {
  name: "InnerProduct2"
  type: "InnerProduct"
  bottom: "InnerProduct1"
  top: "InnerProduct2"
  inner_product_param {
    num_output: 42
    weight_filler {
      type: "gaussian"
      std: 0.01
    }
    bias_filler {
      type: "constant"
      value: 0
    }
  }
}
layer {
  name: "ReLU2"
  type: "ReLU"
  bottom: "InnerProduct2"
  top: "InnerProduct2"
}
layer {
  name: "InnerProduct3"
  type: "InnerProduct"
  bottom: "InnerProduct2"
  top: "InnerProduct3"
  inner_product_param {
    num_output: 7
    weight_filler {
      type: "gaussian"
      std: 0.01
    }
    bias_filler {
      type: "constant"
      value: 0
    }
  }
}
I0511 15:14:24.746217   737 layer_factory.hpp:77] Creating layer Python1
I0511 15:14:24.746238   737 net.cpp:91] Creating Layer Python1
I0511 15:14:24.746243   737 net.cpp:399] Python1 -> Python1
I0511 15:14:24.746311   737 net.cpp:141] Setting up Python1
I0511 15:14:24.746320   737 net.cpp:148] Top shape: 1 26 (26)
I0511 15:14:24.746323   737 net.cpp:156] Memory required for data: 104
I0511 15:14:24.746326   737 layer_factory.hpp:77] Creating layer InnerProduct1
I0511 15:14:24.746332   737 net.cpp:91] Creating Layer InnerProduct1
I0511 15:14:24.746335   737 net.cpp:425] InnerProduct1 <- Python1
I0511 15:14:24.746340   737 net.cpp:399] InnerProduct1 -> InnerProduct1
I0511 15:14:24.746441   737 net.cpp:141] Setting up InnerProduct1
I0511 15:14:24.746448   737 net.cpp:148] Top shape: 1 42 (42)
I0511 15:14:24.746451   737 net.cpp:156] Memory required for data: 272
I0511 15:14:24.746459   737 layer_factory.hpp:77] Creating layer ReLU1
I0511 15:14:24.746465   737 net.cpp:91] Creating Layer ReLU1
I0511 15:14:24.746470   737 net.cpp:425] ReLU1 <- InnerProduct1
I0511 15:14:24.746474   737 net.cpp:386] ReLU1 -> InnerProduct1 (in-place)
I0511 15:14:24.746707   737 net.cpp:141] Setting up ReLU1
I0511 15:14:24.746718   737 net.cpp:148] Top shape: 1 42 (42)
I0511 15:14:24.746721   737 net.cpp:156] Memory required for data: 440
I0511 15:14:24.746724   737 layer_factory.hpp:77] Creating layer InnerProduct2
I0511 15:14:24.746731   737 net.cpp:91] Creating Layer InnerProduct2
I0511 15:14:24.746733   737 net.cpp:425] InnerProduct2 <- InnerProduct1
I0511 15:14:24.746737   737 net.cpp:399] InnerProduct2 -> InnerProduct2
I0511 15:14:24.746860   737 net.cpp:141] Setting up InnerProduct2
I0511 15:14:24.746866   737 net.cpp:148] Top shape: 1 42 (42)
I0511 15:14:24.746870   737 net.cpp:156] Memory required for data: 608
I0511 15:14:24.746877   737 layer_factory.hpp:77] Creating layer ReLU2
I0511 15:14:24.746882   737 net.cpp:91] Creating Layer ReLU2
I0511 15:14:24.746886   737 net.cpp:425] ReLU2 <- InnerProduct2
I0511 15:14:24.746889   737 net.cpp:386] ReLU2 -> InnerProduct2 (in-place)
I0511 15:14:24.747007   737 net.cpp:141] Setting up ReLU2
I0511 15:14:24.747015   737 net.cpp:148] Top shape: 1 42 (42)
I0511 15:14:24.747019   737 net.cpp:156] Memory required for data: 776
I0511 15:14:24.747021   737 layer_factory.hpp:77] Creating layer InnerProduct3
I0511 15:14:24.747026   737 net.cpp:91] Creating Layer InnerProduct3
I0511 15:14:24.747030   737 net.cpp:425] InnerProduct3 <- InnerProduct2
I0511 15:14:24.747033   737 net.cpp:399] InnerProduct3 -> InnerProduct3
I0511 15:14:24.747112   737 net.cpp:141] Setting up InnerProduct3
I0511 15:14:24.747118   737 net.cpp:148] Top shape: 1 7 (7)
I0511 15:14:24.747123   737 net.cpp:156] Memory required for data: 804
I0511 15:14:24.747129   737 net.cpp:219] InnerProduct3 does not need backward computation.
I0511 15:14:24.747133   737 net.cpp:219] ReLU2 does not need backward computation.
I0511 15:14:24.747135   737 net.cpp:219] InnerProduct2 does not need backward computation.
I0511 15:14:24.747138   737 net.cpp:219] ReLU1 does not need backward computation.
I0511 15:14:24.747140   737 net.cpp:219] InnerProduct1 does not need backward computation.
I0511 15:14:24.747143   737 net.cpp:219] Python1 does not need backward computation.
I0511 15:14:24.747146   737 net.cpp:261] This network produces output InnerProduct3
I0511 15:14:24.747151   737 net.cpp:274] Network initialization done.
I0511 15:14:24.747161   737 solver.cpp:181] Creating test net (#1) specified by test_net_param
I0511 15:14:24.747210   737 net.cpp:49] Initializing net from parameters: 
state {
  phase: TEST
}
layer {
  name: "DummyData1"
  type: "DummyData"
  top: "DummyData1"
  dummy_data_param {
    shape {
      dim: 1
      dim: 26
    }
  }
}
layer {
  name: "InnerProduct1"
  type: "InnerProduct"
  bottom: "DummyData1"
  top: "InnerProduct1"
  inner_product_param {
    num_output: 42
    weight_filler {
      type: "gaussian"
      std: 0.01
    }
    bias_filler {
      type: "constant"
      value: 0
    }
  }
}
layer {
  name: "ReLU1"
  type: "ReLU"
  bottom: "InnerProduct1"
  top: "InnerProduct1"
}
layer {
  name: "InnerProduct2"
  type: "InnerProduct"
  bottom: "InnerProduct1"
  top: "InnerProduct2"
  inner_product_param {
    num_output: 42
    weight_filler {
      type: "gaussian"
      std: 0.01
    }
    bias_filler {
      type: "constant"
      value: 0
    }
  }
}
layer {
  name: "ReLU2"
  type: "ReLU"
  bottom: "InnerProduct2"
  top: "InnerProduct2"
}
layer {
  name: "InnerProduct3"
  type: "InnerProduct"
  bottom: "InnerProduct2"
  top: "InnerProduct3"
  inner_product_param {
    num_output: 7
    weight_filler {
      type: "gaussian"
      std: 0.01
    }
    bias_filler {
      type: "constant"
      value: 0
    }
  }
}
I0511 15:14:24.747231   737 layer_factory.hpp:77] Creating layer DummyData1
I0511 15:14:24.747237   737 net.cpp:91] Creating Layer DummyData1
I0511 15:14:24.747241   737 net.cpp:399] DummyData1 -> DummyData1
I0511 15:14:24.747273   737 net.cpp:141] Setting up DummyData1
I0511 15:14:24.747280   737 net.cpp:148] Top shape: 1 26 (26)
I0511 15:14:24.747283   737 net.cpp:156] Memory required for data: 104
I0511 15:14:24.747287   737 layer_factory.hpp:77] Creating layer InnerProduct1
I0511 15:14:24.747292   737 net.cpp:91] Creating Layer InnerProduct1
I0511 15:14:24.747294   737 net.cpp:425] InnerProduct1 <- DummyData1
I0511 15:14:24.747298   737 net.cpp:399] InnerProduct1 -> InnerProduct1
I0511 15:14:24.747395   737 net.cpp:141] Setting up InnerProduct1
I0511 15:14:24.747401   737 net.cpp:148] Top shape: 1 42 (42)
I0511 15:14:24.747405   737 net.cpp:156] Memory required for data: 272
I0511 15:14:24.747412   737 layer_factory.hpp:77] Creating layer ReLU1
I0511 15:14:24.747417   737 net.cpp:91] Creating Layer ReLU1
I0511 15:14:24.747421   737 net.cpp:425] ReLU1 <- InnerProduct1
I0511 15:14:24.747423   737 net.cpp:386] ReLU1 -> InnerProduct1 (in-place)
I0511 15:14:24.747653   737 net.cpp:141] Setting up ReLU1
I0511 15:14:24.747663   737 net.cpp:148] Top shape: 1 42 (42)
I0511 15:14:24.747665   737 net.cpp:156] Memory required for data: 440
I0511 15:14:24.747669   737 layer_factory.hpp:77] Creating layer InnerProduct2
I0511 15:14:24.747674   737 net.cpp:91] Creating Layer InnerProduct2
I0511 15:14:24.747678   737 net.cpp:425] InnerProduct2 <- InnerProduct1
I0511 15:14:24.747683   737 net.cpp:399] InnerProduct2 -> InnerProduct2
I0511 15:14:24.747803   737 net.cpp:141] Setting up InnerProduct2
I0511 15:14:24.747810   737 net.cpp:148] Top shape: 1 42 (42)
I0511 15:14:24.747813   737 net.cpp:156] Memory required for data: 608
I0511 15:14:24.747820   737 layer_factory.hpp:77] Creating layer ReLU2
I0511 15:14:24.747825   737 net.cpp:91] Creating Layer ReLU2
I0511 15:14:24.747829   737 net.cpp:425] ReLU2 <- InnerProduct2
I0511 15:14:24.747833   737 net.cpp:386] ReLU2 -> InnerProduct2 (in-place)
I0511 15:14:24.747949   737 net.cpp:141] Setting up ReLU2
I0511 15:14:24.747957   737 net.cpp:148] Top shape: 1 42 (42)
I0511 15:14:24.747961   737 net.cpp:156] Memory required for data: 776
I0511 15:14:24.747964   737 layer_factory.hpp:77] Creating layer InnerProduct3
I0511 15:14:24.747968   737 net.cpp:91] Creating Layer InnerProduct3
I0511 15:14:24.747972   737 net.cpp:425] InnerProduct3 <- InnerProduct2
I0511 15:14:24.747975   737 net.cpp:399] InnerProduct3 -> InnerProduct3
I0511 15:14:24.748052   737 net.cpp:141] Setting up InnerProduct3
I0511 15:14:24.748059   737 net.cpp:148] Top shape: 1 7 (7)
I0511 15:14:24.748062   737 net.cpp:156] Memory required for data: 804
I0511 15:14:24.748070   737 net.cpp:219] InnerProduct3 does not need backward computation.
I0511 15:14:24.748072   737 net.cpp:219] ReLU2 does not need backward computation.
I0511 15:14:24.748075   737 net.cpp:219] InnerProduct2 does not need backward computation.
I0511 15:14:24.748078   737 net.cpp:219] ReLU1 does not need backward computation.
…
