…
I0511 15:45:36.393620  1121 solver.cpp:48] Initializing solver from parameters: 
test_iter: 1
test_iter: 1
test_interval: 1000000
base_lr: 0.001
display: 0
lr_policy: "fixed"
momentum: 0.9
weight_decay: 0.005
snapshot_prefix: "python/../experiments/mjc_mdgps_example/policy"
random_seed: 1
train_net_param {
  layer {
    name: "Python1"
    type: "Python"
    top: "Python1"
    top: "Python2"
    top: "Python3"
    python_param {
      module: "policy_layers"
      layer: "PolicyDataLayer"
      param_str: "{\"shape\": [{\"dim\": [25, 26]}, {\"dim\": [25, 7]}, {\"dim\": [25, 7, 7]}]}"
    }
  }
  layer {
    name: "InnerProduct1"
    type: "InnerProduct"
    bottom: "Python1"
    top: "InnerProduct1"
    inner_product_param {
      num_output: 42
      weight_filler {
        type: "gaussian"
        std: 0.01
      }
      bias_filler {
        type: "constant"
        value: 0
      }
    }
  }
  layer {
    name: "ReLU1"
    type: "ReLU"
    bottom: "InnerProduct1"
    top: "InnerProduct1"
  }
  layer {
    name: "InnerProduct2"
    type: "InnerProduct"
    bottom: "InnerProduct1"
    top: "InnerProduct2"
    inner_product_param {
      num_output: 42
      weight_filler {
        type: "gaussian"
        std: 0.01
      }
      bias_filler {
        type: "constant"
        value: 0
      }
    }
  }
  layer {
    name: "ReLU2"
    type: "ReLU"
    bottom: "InnerProduct2"
    top: "InnerProduct2"
  }
  layer {
    name: "InnerProduct3"
    type: "InnerProduct"
    bottom: "InnerProduct2"
    top: "InnerProduct3"
    inner_product_param {
      num_output: 7
      weight_filler {
        type: "gaussian"
        std: 0.01
      }
      bias_filler {
        type: "constant"
        value: 0
      }
    }
  }
  layer {
    name: "Python4"
    type: "Python"
    bottom: "InnerProduct3"
    bottom: "Python2"
    bottom: "Python3"
    top: "Python4"
    loss_weight: 1
    python_param {
      module: "policy_layers"
      layer: "WeightedEuclideanLoss"
    }
  }
}
test_net_param {
  layer {
    name: "Python1"
    type: "Python"
    top: "Python1"
    python_param {
      module: "policy_layers"
      layer: "PolicyDataLayer"
      param_str: "{\"shape\": [{\"dim\": [1, 26]}]}"
    }
  }
  layer {
    name: "InnerProduct1"
    type: "InnerProduct"
    bottom: "Python1"
    top: "InnerProduct1"
    inner_product_param {
      num_output: 42
      weight_filler {
        type: "gaussian"
        std: 0.01
      }
      bias_filler {
        type: "constant"
        value: 0
      }
    }
  }
  layer {
    name: "ReLU1"
    type: "ReLU"
    bottom: "InnerProduct1"
    top: "InnerProduct1"
  }
  layer {
    name: "InnerProduct2"
    type: "InnerProduct"
    bottom: "InnerProduct1"
    top: "InnerProduct2"
    inner_product_param {
      num_output: 42
      weight_filler {
        type: "gaussian"
        std: 0.01
      }
      bias_filler {
        type: "constant"
        value: 0
      }
    }
  }
  layer {
    name: "ReLU2"
    type: "ReLU"
    bottom: "InnerProduct2"
    top: "InnerProduct2"
  }
  layer {
    name: "InnerProduct3"
    type: "InnerProduct"
    bottom: "InnerProduct2"
    top: "InnerProduct3"
    inner_product_param {
      num_output: 7
      weight_filler {
        type: "gaussian"
        std: 0.01
      }
      bias_filler {
        type: "constant"
        value: 0
      }
    }
  }
}
test_net_param {
  layer {
    name: "DummyData1"
    type: "DummyData"
    top: "DummyData1"
    dummy_data_param {
      shape {
        dim: 1
        dim: 26
      }
    }
  }
  layer {
    name: "InnerProduct1"
    type: "InnerProduct"
    bottom: "DummyData1"
    top: "InnerProduct1"
    inner_product_param {
      num_output: 42
      weight_filler {
        type: "gaussian"
        std: 0.01
      }
      bias_filler {
        type: "constant"
        value: 0
      }
    }
  }
  layer {
    name: "ReLU1"
    type: "ReLU"
    bottom: "InnerProduct1"
    top: "InnerProduct1"
  }
  layer {
    name: "InnerProduct2"
    type: "InnerProduct"
    bottom: "InnerProduct1"
    top: "InnerProduct2"
    inner_product_param {
      num_output: 42
      weight_filler {
        type: "gaussian"
        std: 0.01
      }
      bias_filler {
        type: "constant"
        value: 0
      }
    }
  }
  layer {
    name: "ReLU2"
    type: "ReLU"
    bottom: "InnerProduct2"
    top: "InnerProduct2"
  }
  layer {
    name: "InnerProduct3"
    type: "InnerProduct"
    bottom: "InnerProduct2"
    top: "InnerProduct3"
    inner_product_param {
      num_output: 7
      weight_filler {
        type: "gaussian"
        std: 0.01
      }
      bias_filler {
        type: "constant"
        value: 0
      }
    }
  }
}
type: "Adam"
I0511 15:45:36.393661  1121 solver.cpp:77] Creating training net specified in train_net_param.
I0511 15:45:36.393712  1121 net.cpp:49] Initializing net from parameters: 
state {
  phase: TRAIN
}
layer {
  name: "Python1"
  type: "Python"
  top: "Python1"
  top: "Python2"
  top: "Python3"
  python_param {
    module: "policy_layers"
    layer: "PolicyDataLayer"
    param_str: "{\"shape\": [{\"dim\": [25, 26]}, {\"dim\": [25, 7]}, {\"dim\": [25, 7, 7]}]}"
  }
}
layer {
  name: "InnerProduct1"
  type: "InnerProduct"
  bottom: "Python1"
  top: "InnerProduct1"
  inner_product_param {
    num_output: 42
    weight_filler {
      type: "gaussian"
      std: 0.01
    }
    bias_filler {
      type: "constant"
      value: 0
    }
  }
}
layer {
  name: "ReLU1"
  type: "ReLU"
  bottom: "InnerProduct1"
  top: "InnerProduct1"
}
layer {
  name: "InnerProduct2"
  type: "InnerProduct"
  bottom: "InnerProduct1"
  top: "InnerProduct2"
  inner_product_param {
    num_output: 42
    weight_filler {
      type: "gaussian"
      std: 0.01
    }
    bias_filler {
      type: "constant"
      value: 0
    }
  }
}
layer {
  name: "ReLU2"
  type: "ReLU"
  bottom: "InnerProduct2"
  top: "InnerProduct2"
}
layer {
  name: "InnerProduct3"
  type: "InnerProduct"
  bottom: "InnerProduct2"
  top: "InnerProduct3"
  inner_product_param {
    num_output: 7
    weight_filler {
      type: "gaussian"
      std: 0.01
    }
    bias_filler {
      type: "constant"
      value: 0
    }
  }
}
layer {
  name: "Python4"
  type: "Python"
  bottom: "InnerProduct3"
  bottom: "Python2"
  bottom: "Python3"
  top: "Python4"
  loss_weight: 1
  python_param {
    module: "policy_layers"
    layer: "WeightedEuclideanLoss"
  }
}
I0511 15:45:36.393739  1121 layer_factory.hpp:77] Creating layer Python1
I0511 15:45:36.393949  1121 net.cpp:91] Creating Layer Python1
I0511 15:45:36.393960  1121 net.cpp:399] Python1 -> Python1
I0511 15:45:36.393970  1121 net.cpp:399] Python1 -> Python2
I0511 15:45:36.393975  1121 net.cpp:399] Python1 -> Python3
I0511 15:45:36.400425  1121 net.cpp:141] Setting up Python1
I0511 15:45:36.400440  1121 net.cpp:148] Top shape: 25 26 (650)
I0511 15:45:36.400445  1121 net.cpp:148] Top shape: 25 7 (175)
I0511 15:45:36.400449  1121 net.cpp:148] Top shape: 25 7 7 (1225)
I0511 15:45:36.400450  1121 net.cpp:156] Memory required for data: 8200
I0511 15:45:36.400454  1121 layer_factory.hpp:77] Creating layer InnerProduct1
I0511 15:45:36.400466  1121 net.cpp:91] Creating Layer InnerProduct1
I0511 15:45:36.400470  1121 net.cpp:425] InnerProduct1 <- Python1
I0511 15:45:36.400475  1121 net.cpp:399] InnerProduct1 -> InnerProduct1
I0511 15:45:36.400938  1121 net.cpp:141] Setting up InnerProduct1
I0511 15:45:36.400949  1121 net.cpp:148] Top shape: 25 42 (1050)
I0511 15:45:36.400952  1121 net.cpp:156] Memory required for data: 12400
I0511 15:45:36.400961  1121 layer_factory.hpp:77] Creating layer ReLU1
I0511 15:45:36.400969  1121 net.cpp:91] Creating Layer ReLU1
I0511 15:45:36.400971  1121 net.cpp:425] ReLU1 <- InnerProduct1
I0511 15:45:36.400975  1121 net.cpp:386] ReLU1 -> InnerProduct1 (in-place)
I0511 15:45:36.519089  1121 net.cpp:141] Setting up ReLU1
I0511 15:45:36.519114  1121 net.cpp:148] Top shape: 25 42 (1050)
I0511 15:45:36.519117  1121 net.cpp:156] Memory required for data: 16600
I0511 15:45:36.519122  1121 layer_factory.hpp:77] Creating layer InnerProduct2
I0511 15:45:36.519134  1121 net.cpp:91] Creating Layer InnerProduct2
I0511 15:45:36.519136  1121 net.cpp:425] InnerProduct2 <- InnerProduct1
I0511 15:45:36.519143  1121 net.cpp:399] InnerProduct2 -> InnerProduct2
I0511 15:45:36.519304  1121 net.cpp:141] Setting up InnerProduct2
I0511 15:45:36.519311  1121 net.cpp:148] Top shape: 25 42 (1050)
I0511 15:45:36.519314  1121 net.cpp:156] Memory required for data: 20800
I0511 15:45:36.519322  1121 layer_factory.hpp:77] Creating layer ReLU2
I0511 15:45:36.519328  1121 net.cpp:91] Creating Layer ReLU2
I0511 15:45:36.519332  1121 net.cpp:425] ReLU2 <- InnerProduct2
I0511 15:45:36.519335  1121 net.cpp:386] ReLU2 -> InnerProduct2 (in-place)
I0511 15:45:36.519455  1121 net.cpp:141] Setting up ReLU2
I0511 15:45:36.519464  1121 net.cpp:148] Top shape: 25 42 (1050)
I0511 15:45:36.519467  1121 net.cpp:156] Memory required for data: 25000
I0511 15:45:36.519470  1121 layer_factory.hpp:77] Creating layer InnerProduct3
I0511 15:45:36.519475  1121 net.cpp:91] Creating Layer InnerProduct3
I0511 15:45:36.519479  1121 net.cpp:425] InnerProduct3 <- InnerProduct2
I0511 15:45:36.519482  1121 net.cpp:399] InnerProduct3 -> InnerProduct3
I0511 15:45:36.519912  1121 net.cpp:141] Setting up InnerProduct3
I0511 15:45:36.519932  1121 net.cpp:148] Top shape: 25 7 (175)
I0511 15:45:36.519935  1121 net.cpp:156] Memory required for data: 25700
I0511 15:45:36.519943  1121 layer_factory.hpp:77] Creating layer Python4
I0511 15:45:36.519990  1121 net.cpp:91] Creating Layer Python4
I0511 15:45:36.519996  1121 net.cpp:425] Python4 <- InnerProduct3
I0511 15:45:36.519999  1121 net.cpp:425] Python4 <- Python2
I0511 15:45:36.520004  1121 net.cpp:425] Python4 <- Python3
I0511 15:45:36.520007  1121 net.cpp:399] Python4 -> Python4
I0511 15:45:36.520058  1121 net.cpp:141] Setting up Python4
I0511 15:45:36.520066  1121 net.cpp:148] Top shape: 1 (1)
I0511 15:45:36.520068  1121 net.cpp:151]     with loss weight 1
I0511 15:45:36.520076  1121 net.cpp:156] Memory required for data: 25704
I0511 15:45:36.520078  1121 net.cpp:217] Python4 needs backward computation.
I0511 15:45:36.520082  1121 net.cpp:217] InnerProduct3 needs backward computation.
I0511 15:45:36.520086  1121 net.cpp:217] ReLU2 needs backward computation.
I0511 15:45:36.520088  1121 net.cpp:217] InnerProduct2 needs backward computation.
I0511 15:45:36.520092  1121 net.cpp:217] ReLU1 needs backward computation.
I0511 15:45:36.520093  1121 net.cpp:217] InnerProduct1 needs backward computation.
I0511 15:45:36.520097  1121 net.cpp:219] Python1 does not need backward computation.
I0511 15:45:36.520099  1121 net.cpp:261] This network produces output Python4
I0511 15:45:36.520107  1121 net.cpp:274] Network initialization done.
I0511 15:45:36.520139  1121 solver.cpp:181] Creating test net (#0) specified by test_net_param
I0511 15:45:36.520197  1121 net.cpp:49] Initializing net from parameters: 
state {
  phase: TEST
}
layer {
  name: "Python1"
  type: "Python"
  top: "Python1"
  python_param {
    module: "policy_layers"
    layer: "PolicyDataLayer"
    param_str: "{\"shape\": [{\"dim\": [1, 26]}]}"
  }
}
layer {
  name: "InnerProduct1"
  type: "InnerProduct"
  bottom: "Python1"
  top: "InnerProduct1"
  inner_product_param {
    num_output: 42
    weight_filler {
      type: "gaussian"
      std: 0.01
    }
    bias_filler {
      type: "constant"
      value: 0
    }
  }
}
layer {
  name: "ReLU1"
  type: "ReLU"
  bottom: "InnerProduct1"
  top: "InnerProduct1"
}
layer {
  name: "InnerProduct2"
  type: "InnerProduct"
  bottom: "InnerProduct1"
  top: "InnerProduct2"
  inner_product_param {
    num_output: 42
    weight_filler {
      type: "gaussian"
      std: 0.01
    }
    bias_filler {
      type: "constant"
      value: 0
    }
  }
}
layer {
  name: "ReLU2"
  type: "ReLU"
  bottom: "InnerProduct2"
  top: "InnerProduct2"
}
layer {
  name: "InnerProduct3"
  type: "InnerProduct"
  bottom: "InnerProduct2"
  top: "InnerProduct3"
  inner_product_param {
    num_output: 7
    weight_filler {
      type: "gaussian"
      std: 0.01
    }
    bias_filler {
      type: "constant"
      value: 0
    }
  }
}
I0511 15:45:36.520220  1121 layer_factory.hpp:77] Creating layer Python1
I0511 15:45:36.520239  1121 net.cpp:91] Creating Layer Python1
I0511 15:45:36.520244  1121 net.cpp:399] Python1 -> Python1
I0511 15:45:36.520310  1121 net.cpp:141] Setting up Python1
I0511 15:45:36.520319  1121 net.cpp:148] Top shape: 1 26 (26)
I0511 15:45:36.520323  1121 net.cpp:156] Memory required for data: 104
I0511 15:45:36.520325  1121 layer_factory.hpp:77] Creating layer InnerProduct1
I0511 15:45:36.520331  1121 net.cpp:91] Creating Layer InnerProduct1
I0511 15:45:36.520334  1121 net.cpp:425] InnerProduct1 <- Python1
I0511 15:45:36.520339  1121 net.cpp:399] InnerProduct1 -> InnerProduct1
I0511 15:45:36.520438  1121 net.cpp:141] Setting up InnerProduct1
I0511 15:45:36.520445  1121 net.cpp:148] Top shape: 1 42 (42)
I0511 15:45:36.520449  1121 net.cpp:156] Memory required for data: 272
I0511 15:45:36.520457  1121 layer_factory.hpp:77] Creating layer ReLU1
I0511 15:45:36.520462  1121 net.cpp:91] Creating Layer ReLU1
I0511 15:45:36.520464  1121 net.cpp:425] ReLU1 <- InnerProduct1
I0511 15:45:36.520468  1121 net.cpp:386] ReLU1 -> InnerProduct1 (in-place)
I0511 15:45:36.520699  1121 net.cpp:141] Setting up ReLU1
I0511 15:45:36.520709  1121 net.cpp:148] Top shape: 1 42 (42)
I0511 15:45:36.520712  1121 net.cpp:156] Memory required for data: 440
I0511 15:45:36.520715  1121 layer_factory.hpp:77] Creating layer InnerProduct2
I0511 15:45:36.520720  1121 net.cpp:91] Creating Layer InnerProduct2
I0511 15:45:36.520723  1121 net.cpp:425] InnerProduct2 <- InnerProduct1
I0511 15:45:36.520728  1121 net.cpp:399] InnerProduct2 -> InnerProduct2
I0511 15:45:36.520860  1121 net.cpp:141] Setting up InnerProduct2
I0511 15:45:36.520869  1121 net.cpp:148] Top shape: 1 42 (42)
I0511 15:45:36.520871  1121 net.cpp:156] Memory required for data: 608
I0511 15:45:36.520879  1121 layer_factory.hpp:77] Creating layer ReLU2
I0511 15:45:36.520882  1121 net.cpp:91] Creating Layer ReLU2
I0511 15:45:36.520885  1121 net.cpp:425] ReLU2 <- InnerProduct2
I0511 15:45:36.520889  1121 net.cpp:386] ReLU2 -> InnerProduct2 (in-place)
I0511 15:45:36.521009  1121 net.cpp:141] Setting up ReLU2
I0511 15:45:36.521018  1121 net.cpp:148] Top shape: 1 42 (42)
I0511 15:45:36.521020  1121 net.cpp:156] Memory required for data: 776
I0511 15:45:36.521023  1121 layer_factory.hpp:77] Creating layer InnerProduct3
I0511 15:45:36.521028  1121 net.cpp:91] Creating Layer InnerProduct3
I0511 15:45:36.521031  1121 net.cpp:425] InnerProduct3 <- InnerProduct2
I0511 15:45:36.521035  1121 net.cpp:399] InnerProduct3 -> InnerProduct3
I0511 15:45:36.521112  1121 net.cpp:141] Setting up InnerProduct3
I0511 15:45:36.521118  1121 net.cpp:148] Top shape: 1 7 (7)
I0511 15:45:36.521121  1121 net.cpp:156] Memory required for data: 804
I0511 15:45:36.521128  1121 net.cpp:219] InnerProduct3 does not need backward computation.
I0511 15:45:36.521131  1121 net.cpp:219] ReLU2 does not need backward computation.
I0511 15:45:36.521133  1121 net.cpp:219] InnerProduct2 does not need backward computation.
I0511 15:45:36.521136  1121 net.cpp:219] ReLU1 does not need backward computation.
I0511 15:45:36.521139  1121 net.cpp:219] InnerProduct1 does not need backward computation.
I0511 15:45:36.521142  1121 net.cpp:219] Python1 does not need backward computation.
I0511 15:45:36.521144  1121 net.cpp:261] This network produces output InnerProduct3
I0511 15:45:36.521149  1121 net.cpp:274] Network initialization done.
I0511 15:45:36.521160  1121 solver.cpp:181] Creating test net (#1) specified by test_net_param
I0511 15:45:36.521209  1121 net.cpp:49] Initializing net from parameters: 
state {
  phase: TEST
}
layer {
  name: "DummyData1"
  type: "DummyData"
  top: "DummyData1"
  dummy_data_param {
    shape {
      dim: 1
      dim: 26
    }
  }
}
layer {
  name: "InnerProduct1"
  type: "InnerProduct"
  bottom: "DummyData1"
  top: "InnerProduct1"
  inner_product_param {
    num_output: 42
    weight_filler {
      type: "gaussian"
      std: 0.01
    }
    bias_filler {
      type: "constant"
      value: 0
    }
  }
}
layer {
  name: "ReLU1"
  type: "ReLU"
  bottom: "InnerProduct1"
  top: "InnerProduct1"
}
layer {
  name: "InnerProduct2"
  type: "InnerProduct"
  bottom: "InnerProduct1"
  top: "InnerProduct2"
  inner_product_param {
    num_output: 42
    weight_filler {
      type: "gaussian"
      std: 0.01
    }
    bias_filler {
      type: "constant"
      value: 0
    }
  }
}
layer {
  name: "ReLU2"
  type: "ReLU"
  bottom: "InnerProduct2"
  top: "InnerProduct2"
}
layer {
  name: "InnerProduct3"
  type: "InnerProduct"
  bottom: "InnerProduct2"
  top: "InnerProduct3"
  inner_product_param {
    num_output: 7
    weight_filler {
      type: "gaussian"
      std: 0.01
    }
    bias_filler {
      type: "constant"
      value: 0
    }
  }
}
I0511 15:45:36.521229  1121 layer_factory.hpp:77] Creating layer DummyData1
I0511 15:45:36.521234  1121 net.cpp:91] Creating Layer DummyData1
I0511 15:45:36.521237  1121 net.cpp:399] DummyData1 -> DummyData1
I0511 15:45:36.521268  1121 net.cpp:141] Setting up DummyData1
I0511 15:45:36.521273  1121 net.cpp:148] Top shape: 1 26 (26)
I0511 15:45:36.521276  1121 net.cpp:156] Memory required for data: 104
I0511 15:45:36.521281  1121 layer_factory.hpp:77] Creating layer InnerProduct1
I0511 15:45:36.521284  1121 net.cpp:91] Creating Layer InnerProduct1
I0511 15:45:36.521287  1121 net.cpp:425] InnerProduct1 <- DummyData1
I0511 15:45:36.521291  1121 net.cpp:399] InnerProduct1 -> InnerProduct1
I0511 15:45:36.521389  1121 net.cpp:141] Setting up InnerProduct1
I0511 15:45:36.521394  1121 net.cpp:148] Top shape: 1 42 (42)
I0511 15:45:36.521397  1121 net.cpp:156] Memory required for data: 272
I0511 15:45:36.521404  1121 layer_factory.hpp:77] Creating layer ReLU1
I0511 15:45:36.521409  1121 net.cpp:91] Creating Layer ReLU1
I0511 15:45:36.521412  1121 net.cpp:425] ReLU1 <- InnerProduct1
I0511 15:45:36.521416  1121 net.cpp:386] ReLU1 -> InnerProduct1 (in-place)
I0511 15:45:36.521642  1121 net.cpp:141] Setting up ReLU1
I0511 15:45:36.521652  1121 net.cpp:148] Top shape: 1 42 (42)
I0511 15:45:36.521654  1121 net.cpp:156] Memory required for data: 440
I0511 15:45:36.521658  1121 layer_factory.hpp:77] Creating layer InnerProduct2
I0511 15:45:36.521663  1121 net.cpp:91] Creating Layer InnerProduct2
I0511 15:45:36.521667  1121 net.cpp:425] InnerProduct2 <- InnerProduct1
I0511 15:45:36.521670  1121 net.cpp:399] InnerProduct2 -> InnerProduct2
I0511 15:45:36.521795  1121 net.cpp:141] Setting up InnerProduct2
I0511 15:45:36.521801  1121 net.cpp:148] Top shape: 1 42 (42)
I0511 15:45:36.521803  1121 net.cpp:156] Memory required for data: 608
I0511 15:45:36.521811  1121 layer_factory.hpp:77] Creating layer ReLU2
I0511 15:45:36.521814  1121 net.cpp:91] Creating Layer ReLU2
I0511 15:45:36.521817  1121 net.cpp:425] ReLU2 <- InnerProduct2
I0511 15:45:36.521821  1121 net.cpp:386] ReLU2 -> InnerProduct2 (in-place)
I0511 15:45:36.521936  1121 net.cpp:141] Setting up ReLU2
I0511 15:45:36.521944  1121 net.cpp:148] Top shape: 1 42 (42)
I0511 15:45:36.521947  1121 net.cpp:156] Memory required for data: 776
I0511 15:45:36.521950  1121 layer_factory.hpp:77] Creating layer InnerProduct3
I0511 15:45:36.521955  1121 net.cpp:91] Creating Layer InnerProduct3
I0511 15:45:36.521957  1121 net.cpp:425] InnerProduct3 <- InnerProduct2
I0511 15:45:36.521961  1121 net.cpp:399] InnerProduct3 -> InnerProduct3
I0511 15:45:36.522038  1121 net.cpp:141] Setting up InnerProduct3
I0511 15:45:36.522044  1121 net.cpp:148] Top shape: 1 7 (7)
I0511 15:45:36.522047  1121 net.cpp:156] Memory required for data: 804
I0511 15:45:36.522054  1121 net.cpp:219] InnerProduct3 does not need backward computation.
I0511 15:45:36.522058  1121 net.cpp:219] ReLU2 does not need backward computation.
I0511 15:45:36.522059  1121 net.cpp:219] InnerProduct2 does not need backward computation.
I0511 15:45:36.522063  1121 net.cpp:219] ReLU1 does not need backward computation.
…
