…
I0511 13:52:15.994294 32279 solver.cpp:48] Initializing solver from parameters: 
test_iter: 1
test_iter: 1
test_interval: 1000000
base_lr: 0.001
display: 0
lr_policy: "fixed"
momentum: 0.9
weight_decay: 0.005
snapshot_prefix: "python/../experiments/mjc_mdgps_example/policy"
random_seed: 1
train_net_param {
  layer {
    name: "Python1"
    type: "Python"
    top: "Python1"
    top: "Python2"
    top: "Python3"
    python_param {
      module: "policy_layers"
      layer: "PolicyDataLayer"
      param_str: "{\"shape\": [{\"dim\": [25, 26]}, {\"dim\": [25, 7]}, {\"dim\": [25, 7, 7]}]}"
    }
  }
  layer {
    name: "InnerProduct1"
    type: "InnerProduct"
    bottom: "Python1"
    top: "InnerProduct1"
    inner_product_param {
      num_output: 42
      weight_filler {
        type: "gaussian"
        std: 0.01
      }
      bias_filler {
        type: "constant"
        value: 0
      }
    }
  }
  layer {
    name: "ReLU1"
    type: "ReLU"
    bottom: "InnerProduct1"
    top: "InnerProduct1"
  }
  layer {
    name: "InnerProduct2"
    type: "InnerProduct"
    bottom: "InnerProduct1"
    top: "InnerProduct2"
    inner_product_param {
      num_output: 42
      weight_filler {
        type: "gaussian"
        std: 0.01
      }
      bias_filler {
        type: "constant"
        value: 0
      }
    }
  }
  layer {
    name: "ReLU2"
    type: "ReLU"
    bottom: "InnerProduct2"
    top: "InnerProduct2"
  }
  layer {
    name: "InnerProduct3"
    type: "InnerProduct"
    bottom: "InnerProduct2"
    top: "InnerProduct3"
    inner_product_param {
      num_output: 7
      weight_filler {
        type: "gaussian"
        std: 0.01
      }
      bias_filler {
        type: "constant"
        value: 0
      }
    }
  }
  layer {
    name: "Python4"
    type: "Python"
    bottom: "InnerProduct3"
    bottom: "Python2"
    bottom: "Python3"
    top: "Python4"
    loss_weight: 1
    python_param {
      module: "policy_layers"
      layer: "WeightedEuclideanLoss"
    }
  }
}
test_net_param {
  layer {
    name: "Python1"
    type: "Python"
    top: "Python1"
    python_param {
      module: "policy_layers"
      layer: "PolicyDataLayer"
      param_str: "{\"shape\": [{\"dim\": [1, 26]}]}"
    }
  }
  layer {
    name: "InnerProduct1"
    type: "InnerProduct"
    bottom: "Python1"
    top: "InnerProduct1"
    inner_product_param {
      num_output: 42
      weight_filler {
        type: "gaussian"
        std: 0.01
      }
      bias_filler {
        type: "constant"
        value: 0
      }
    }
  }
  layer {
    name: "ReLU1"
    type: "ReLU"
    bottom: "InnerProduct1"
    top: "InnerProduct1"
  }
  layer {
    name: "InnerProduct2"
    type: "InnerProduct"
    bottom: "InnerProduct1"
    top: "InnerProduct2"
    inner_product_param {
      num_output: 42
      weight_filler {
        type: "gaussian"
        std: 0.01
      }
      bias_filler {
        type: "constant"
        value: 0
      }
    }
  }
  layer {
    name: "ReLU2"
    type: "ReLU"
    bottom: "InnerProduct2"
    top: "InnerProduct2"
  }
  layer {
    name: "InnerProduct3"
    type: "InnerProduct"
    bottom: "InnerProduct2"
    top: "InnerProduct3"
    inner_product_param {
      num_output: 7
      weight_filler {
        type: "gaussian"
        std: 0.01
      }
      bias_filler {
        type: "constant"
        value: 0
      }
    }
  }
}
test_net_param {
  layer {
    name: "DummyData1"
    type: "DummyData"
    top: "DummyData1"
    dummy_data_param {
      shape {
        dim: 1
        dim: 26
      }
    }
  }
  layer {
    name: "InnerProduct1"
    type: "InnerProduct"
    bottom: "DummyData1"
    top: "InnerProduct1"
    inner_product_param {
      num_output: 42
      weight_filler {
        type: "gaussian"
        std: 0.01
      }
      bias_filler {
        type: "constant"
        value: 0
      }
    }
  }
  layer {
    name: "ReLU1"
    type: "ReLU"
    bottom: "InnerProduct1"
    top: "InnerProduct1"
  }
  layer {
    name: "InnerProduct2"
    type: "InnerProduct"
    bottom: "InnerProduct1"
    top: "InnerProduct2"
    inner_product_param {
      num_output: 42
      weight_filler {
        type: "gaussian"
        std: 0.01
      }
      bias_filler {
        type: "constant"
        value: 0
      }
    }
  }
  layer {
    name: "ReLU2"
    type: "ReLU"
    bottom: "InnerProduct2"
    top: "InnerProduct2"
  }
  layer {
    name: "InnerProduct3"
    type: "InnerProduct"
    bottom: "InnerProduct2"
    top: "InnerProduct3"
    inner_product_param {
      num_output: 7
      weight_filler {
        type: "gaussian"
        std: 0.01
      }
      bias_filler {
        type: "constant"
        value: 0
      }
    }
  }
}
type: "Adam"
I0511 13:52:15.994346 32279 solver.cpp:77] Creating training net specified in train_net_param.
I0511 13:52:15.994403 32279 net.cpp:49] Initializing net from parameters: 
state {
  phase: TRAIN
}
layer {
  name: "Python1"
  type: "Python"
  top: "Python1"
  top: "Python2"
  top: "Python3"
  python_param {
    module: "policy_layers"
    layer: "PolicyDataLayer"
    param_str: "{\"shape\": [{\"dim\": [25, 26]}, {\"dim\": [25, 7]}, {\"dim\": [25, 7, 7]}]}"
  }
}
layer {
  name: "InnerProduct1"
  type: "InnerProduct"
  bottom: "Python1"
  top: "InnerProduct1"
  inner_product_param {
    num_output: 42
    weight_filler {
      type: "gaussian"
      std: 0.01
    }
    bias_filler {
      type: "constant"
      value: 0
    }
  }
}
layer {
  name: "ReLU1"
  type: "ReLU"
  bottom: "InnerProduct1"
  top: "InnerProduct1"
}
layer {
  name: "InnerProduct2"
  type: "InnerProduct"
  bottom: "InnerProduct1"
  top: "InnerProduct2"
  inner_product_param {
    num_output: 42
    weight_filler {
      type: "gaussian"
      std: 0.01
    }
    bias_filler {
      type: "constant"
      value: 0
    }
  }
}
layer {
  name: "ReLU2"
  type: "ReLU"
  bottom: "InnerProduct2"
  top: "InnerProduct2"
}
layer {
  name: "InnerProduct3"
  type: "InnerProduct"
  bottom: "InnerProduct2"
  top: "InnerProduct3"
  inner_product_param {
    num_output: 7
    weight_filler {
      type: "gaussian"
      std: 0.01
    }
    bias_filler {
      type: "constant"
      value: 0
    }
  }
}
layer {
  name: "Python4"
  type: "Python"
  bottom: "InnerProduct3"
  bottom: "Python2"
  bottom: "Python3"
  top: "Python4"
  loss_weight: 1
  python_param {
    module: "policy_layers"
    layer: "WeightedEuclideanLoss"
  }
}
I0511 13:52:15.994432 32279 layer_factory.hpp:77] Creating layer Python1
I0511 13:52:15.994633 32279 net.cpp:91] Creating Layer Python1
I0511 13:52:15.994647 32279 net.cpp:399] Python1 -> Python1
I0511 13:52:15.994653 32279 net.cpp:399] Python1 -> Python2
I0511 13:52:15.994659 32279 net.cpp:399] Python1 -> Python3
I0511 13:52:16.002584 32279 net.cpp:141] Setting up Python1
I0511 13:52:16.002604 32279 net.cpp:148] Top shape: 25 26 (650)
I0511 13:52:16.002609 32279 net.cpp:148] Top shape: 25 7 (175)
I0511 13:52:16.002611 32279 net.cpp:148] Top shape: 25 7 7 (1225)
I0511 13:52:16.002614 32279 net.cpp:156] Memory required for data: 8200
I0511 13:52:16.002619 32279 layer_factory.hpp:77] Creating layer InnerProduct1
I0511 13:52:16.002635 32279 net.cpp:91] Creating Layer InnerProduct1
I0511 13:52:16.002637 32279 net.cpp:425] InnerProduct1 <- Python1
I0511 13:52:16.002643 32279 net.cpp:399] InnerProduct1 -> InnerProduct1
I0511 13:52:16.003105 32279 net.cpp:141] Setting up InnerProduct1
I0511 13:52:16.003115 32279 net.cpp:148] Top shape: 25 42 (1050)
I0511 13:52:16.003118 32279 net.cpp:156] Memory required for data: 12400
I0511 13:52:16.003130 32279 layer_factory.hpp:77] Creating layer ReLU1
I0511 13:52:16.003137 32279 net.cpp:91] Creating Layer ReLU1
I0511 13:52:16.003140 32279 net.cpp:425] ReLU1 <- InnerProduct1
I0511 13:52:16.003145 32279 net.cpp:386] ReLU1 -> InnerProduct1 (in-place)
I0511 13:52:16.178479 32279 net.cpp:141] Setting up ReLU1
I0511 13:52:16.178503 32279 net.cpp:148] Top shape: 25 42 (1050)
I0511 13:52:16.178506 32279 net.cpp:156] Memory required for data: 16600
I0511 13:52:16.178511 32279 layer_factory.hpp:77] Creating layer InnerProduct2
I0511 13:52:16.178522 32279 net.cpp:91] Creating Layer InnerProduct2
I0511 13:52:16.178526 32279 net.cpp:425] InnerProduct2 <- InnerProduct1
I0511 13:52:16.178534 32279 net.cpp:399] InnerProduct2 -> InnerProduct2
I0511 13:52:16.178696 32279 net.cpp:141] Setting up InnerProduct2
I0511 13:52:16.178704 32279 net.cpp:148] Top shape: 25 42 (1050)
I0511 13:52:16.178707 32279 net.cpp:156] Memory required for data: 20800
I0511 13:52:16.178715 32279 layer_factory.hpp:77] Creating layer ReLU2
I0511 13:52:16.178722 32279 net.cpp:91] Creating Layer ReLU2
I0511 13:52:16.178727 32279 net.cpp:425] ReLU2 <- InnerProduct2
I0511 13:52:16.178731 32279 net.cpp:386] ReLU2 -> InnerProduct2 (in-place)
I0511 13:52:16.178851 32279 net.cpp:141] Setting up ReLU2
I0511 13:52:16.178858 32279 net.cpp:148] Top shape: 25 42 (1050)
I0511 13:52:16.178861 32279 net.cpp:156] Memory required for data: 25000
I0511 13:52:16.178864 32279 layer_factory.hpp:77] Creating layer InnerProduct3
I0511 13:52:16.178870 32279 net.cpp:91] Creating Layer InnerProduct3
I0511 13:52:16.178874 32279 net.cpp:425] InnerProduct3 <- InnerProduct2
I0511 13:52:16.178877 32279 net.cpp:399] InnerProduct3 -> InnerProduct3
I0511 13:52:16.179316 32279 net.cpp:141] Setting up InnerProduct3
I0511 13:52:16.179325 32279 net.cpp:148] Top shape: 25 7 (175)
I0511 13:52:16.179328 32279 net.cpp:156] Memory required for data: 25700
I0511 13:52:16.179335 32279 layer_factory.hpp:77] Creating layer Python4
I0511 13:52:16.179384 32279 net.cpp:91] Creating Layer Python4
I0511 13:52:16.179390 32279 net.cpp:425] Python4 <- InnerProduct3
I0511 13:52:16.179394 32279 net.cpp:425] Python4 <- Python2
I0511 13:52:16.179397 32279 net.cpp:425] Python4 <- Python3
I0511 13:52:16.179401 32279 net.cpp:399] Python4 -> Python4
I0511 13:52:16.179453 32279 net.cpp:141] Setting up Python4
I0511 13:52:16.179461 32279 net.cpp:148] Top shape: 1 (1)
I0511 13:52:16.179463 32279 net.cpp:151]     with loss weight 1
I0511 13:52:16.179471 32279 net.cpp:156] Memory required for data: 25704
I0511 13:52:16.179473 32279 net.cpp:217] Python4 needs backward computation.
I0511 13:52:16.179477 32279 net.cpp:217] InnerProduct3 needs backward computation.
I0511 13:52:16.179481 32279 net.cpp:217] ReLU2 needs backward computation.
I0511 13:52:16.179483 32279 net.cpp:217] InnerProduct2 needs backward computation.
I0511 13:52:16.179486 32279 net.cpp:217] ReLU1 needs backward computation.
I0511 13:52:16.179488 32279 net.cpp:217] InnerProduct1 needs backward computation.
I0511 13:52:16.179492 32279 net.cpp:219] Python1 does not need backward computation.
I0511 13:52:16.179496 32279 net.cpp:261] This network produces output Python4
I0511 13:52:16.179502 32279 net.cpp:274] Network initialization done.
I0511 13:52:16.179540 32279 solver.cpp:181] Creating test net (#0) specified by test_net_param
I0511 13:52:16.179597 32279 net.cpp:49] Initializing net from parameters: 
state {
  phase: TEST
}
layer {
  name: "Python1"
  type: "Python"
  top: "Python1"
  python_param {
    module: "policy_layers"
    layer: "PolicyDataLayer"
    param_str: "{\"shape\": [{\"dim\": [1, 26]}]}"
  }
}
layer {
  name: "InnerProduct1"
  type: "InnerProduct"
  bottom: "Python1"
  top: "InnerProduct1"
  inner_product_param {
    num_output: 42
    weight_filler {
      type: "gaussian"
      std: 0.01
    }
    bias_filler {
      type: "constant"
      value: 0
    }
  }
}
layer {
  name: "ReLU1"
  type: "ReLU"
  bottom: "InnerProduct1"
  top: "InnerProduct1"
}
layer {
  name: "InnerProduct2"
  type: "InnerProduct"
  bottom: "InnerProduct1"
  top: "InnerProduct2"
  inner_product_param {
    num_output: 42
    weight_filler {
      type: "gaussian"
      std: 0.01
    }
    bias_filler {
      type: "constant"
      value: 0
    }
  }
}
layer {
  name: "ReLU2"
  type: "ReLU"
  bottom: "InnerProduct2"
  top: "InnerProduct2"
}
layer {
  name: "InnerProduct3"
  type: "InnerProduct"
  bottom: "InnerProduct2"
  top: "InnerProduct3"
  inner_product_param {
    num_output: 7
    weight_filler {
      type: "gaussian"
      std: 0.01
    }
    bias_filler {
      type: "constant"
      value: 0
    }
  }
}
I0511 13:52:16.179621 32279 layer_factory.hpp:77] Creating layer Python1
I0511 13:52:16.179641 32279 net.cpp:91] Creating Layer Python1
I0511 13:52:16.179646 32279 net.cpp:399] Python1 -> Python1
I0511 13:52:16.179713 32279 net.cpp:141] Setting up Python1
I0511 13:52:16.179723 32279 net.cpp:148] Top shape: 1 26 (26)
I0511 13:52:16.179726 32279 net.cpp:156] Memory required for data: 104
I0511 13:52:16.179729 32279 layer_factory.hpp:77] Creating layer InnerProduct1
I0511 13:52:16.179735 32279 net.cpp:91] Creating Layer InnerProduct1
I0511 13:52:16.179738 32279 net.cpp:425] InnerProduct1 <- Python1
I0511 13:52:16.179744 32279 net.cpp:399] InnerProduct1 -> InnerProduct1
I0511 13:52:16.179846 32279 net.cpp:141] Setting up InnerProduct1
I0511 13:52:16.179852 32279 net.cpp:148] Top shape: 1 42 (42)
I0511 13:52:16.179854 32279 net.cpp:156] Memory required for data: 272
I0511 13:52:16.179862 32279 layer_factory.hpp:77] Creating layer ReLU1
I0511 13:52:16.179867 32279 net.cpp:91] Creating Layer ReLU1
I0511 13:52:16.179869 32279 net.cpp:425] ReLU1 <- InnerProduct1
I0511 13:52:16.179873 32279 net.cpp:386] ReLU1 -> InnerProduct1 (in-place)
I0511 13:52:16.180107 32279 net.cpp:141] Setting up ReLU1
I0511 13:52:16.180117 32279 net.cpp:148] Top shape: 1 42 (42)
I0511 13:52:16.180120 32279 net.cpp:156] Memory required for data: 440
I0511 13:52:16.180124 32279 layer_factory.hpp:77] Creating layer InnerProduct2
I0511 13:52:16.180130 32279 net.cpp:91] Creating Layer InnerProduct2
I0511 13:52:16.180132 32279 net.cpp:425] InnerProduct2 <- InnerProduct1
I0511 13:52:16.180136 32279 net.cpp:399] InnerProduct2 -> InnerProduct2
I0511 13:52:16.180259 32279 net.cpp:141] Setting up InnerProduct2
I0511 13:52:16.180266 32279 net.cpp:148] Top shape: 1 42 (42)
I0511 13:52:16.180269 32279 net.cpp:156] Memory required for data: 608
I0511 13:52:16.180275 32279 layer_factory.hpp:77] Creating layer ReLU2
I0511 13:52:16.180280 32279 net.cpp:91] Creating Layer ReLU2
I0511 13:52:16.180282 32279 net.cpp:425] ReLU2 <- InnerProduct2
I0511 13:52:16.180286 32279 net.cpp:386] ReLU2 -> InnerProduct2 (in-place)
I0511 13:52:16.180408 32279 net.cpp:141] Setting up ReLU2
I0511 13:52:16.180414 32279 net.cpp:148] Top shape: 1 42 (42)
I0511 13:52:16.180418 32279 net.cpp:156] Memory required for data: 776
I0511 13:52:16.180420 32279 layer_factory.hpp:77] Creating layer InnerProduct3
I0511 13:52:16.180424 32279 net.cpp:91] Creating Layer InnerProduct3
I0511 13:52:16.180428 32279 net.cpp:425] InnerProduct3 <- InnerProduct2
I0511 13:52:16.180433 32279 net.cpp:399] InnerProduct3 -> InnerProduct3
I0511 13:52:16.180510 32279 net.cpp:141] Setting up InnerProduct3
I0511 13:52:16.180516 32279 net.cpp:148] Top shape: 1 7 (7)
I0511 13:52:16.180518 32279 net.cpp:156] Memory required for data: 804
I0511 13:52:16.180524 32279 net.cpp:219] InnerProduct3 does not need backward computation.
I0511 13:52:16.180527 32279 net.cpp:219] ReLU2 does not need backward computation.
I0511 13:52:16.180531 32279 net.cpp:219] InnerProduct2 does not need backward computation.
I0511 13:52:16.180533 32279 net.cpp:219] ReLU1 does not need backward computation.
I0511 13:52:16.180536 32279 net.cpp:219] InnerProduct1 does not need backward computation.
I0511 13:52:16.180538 32279 net.cpp:219] Python1 does not need backward computation.
I0511 13:52:16.180541 32279 net.cpp:261] This network produces output InnerProduct3
I0511 13:52:16.180546 32279 net.cpp:274] Network initialization done.
I0511 13:52:16.180557 32279 solver.cpp:181] Creating test net (#1) specified by test_net_param
I0511 13:52:16.180604 32279 net.cpp:49] Initializing net from parameters: 
state {
  phase: TEST
}
layer {
  name: "DummyData1"
  type: "DummyData"
  top: "DummyData1"
  dummy_data_param {
    shape {
      dim: 1
      dim: 26
    }
  }
}
layer {
  name: "InnerProduct1"
  type: "InnerProduct"
  bottom: "DummyData1"
  top: "InnerProduct1"
  inner_product_param {
    num_output: 42
    weight_filler {
      type: "gaussian"
      std: 0.01
    }
    bias_filler {
      type: "constant"
      value: 0
    }
  }
}
layer {
  name: "ReLU1"
  type: "ReLU"
  bottom: "InnerProduct1"
  top: "InnerProduct1"
}
layer {
  name: "InnerProduct2"
  type: "InnerProduct"
  bottom: "InnerProduct1"
  top: "InnerProduct2"
  inner_product_param {
    num_output: 42
    weight_filler {
      type: "gaussian"
      std: 0.01
    }
    bias_filler {
      type: "constant"
      value: 0
    }
  }
}
layer {
  name: "ReLU2"
  type: "ReLU"
  bottom: "InnerProduct2"
  top: "InnerProduct2"
}
layer {
  name: "InnerProduct3"
  type: "InnerProduct"
  bottom: "InnerProduct2"
  top: "InnerProduct3"
  inner_product_param {
    num_output: 7
    weight_filler {
      type: "gaussian"
      std: 0.01
    }
    bias_filler {
      type: "constant"
      value: 0
    }
  }
}
I0511 13:52:16.180624 32279 layer_factory.hpp:77] Creating layer DummyData1
I0511 13:52:16.180630 32279 net.cpp:91] Creating Layer DummyData1
I0511 13:52:16.180634 32279 net.cpp:399] DummyData1 -> DummyData1
I0511 13:52:16.180666 32279 net.cpp:141] Setting up DummyData1
I0511 13:52:16.180672 32279 net.cpp:148] Top shape: 1 26 (26)
I0511 13:52:16.180675 32279 net.cpp:156] Memory required for data: 104
I0511 13:52:16.180678 32279 layer_factory.hpp:77] Creating layer InnerProduct1
I0511 13:52:16.180682 32279 net.cpp:91] Creating Layer InnerProduct1
I0511 13:52:16.180685 32279 net.cpp:425] InnerProduct1 <- DummyData1
I0511 13:52:16.180690 32279 net.cpp:399] InnerProduct1 -> InnerProduct1
I0511 13:52:16.180799 32279 net.cpp:141] Setting up InnerProduct1
I0511 13:52:16.180805 32279 net.cpp:148] Top shape: 1 42 (42)
I0511 13:52:16.180809 32279 net.cpp:156] Memory required for data: 272
I0511 13:52:16.180815 32279 layer_factory.hpp:77] Creating layer ReLU1
I0511 13:52:16.180819 32279 net.cpp:91] Creating Layer ReLU1
I0511 13:52:16.180822 32279 net.cpp:425] ReLU1 <- InnerProduct1
I0511 13:52:16.180826 32279 net.cpp:386] ReLU1 -> InnerProduct1 (in-place)
I0511 13:52:16.181057 32279 net.cpp:141] Setting up ReLU1
I0511 13:52:16.181067 32279 net.cpp:148] Top shape: 1 42 (42)
I0511 13:52:16.181069 32279 net.cpp:156] Memory required for data: 440
I0511 13:52:16.181072 32279 layer_factory.hpp:77] Creating layer InnerProduct2
I0511 13:52:16.181078 32279 net.cpp:91] Creating Layer InnerProduct2
I0511 13:52:16.181082 32279 net.cpp:425] InnerProduct2 <- InnerProduct1
I0511 13:52:16.181085 32279 net.cpp:399] InnerProduct2 -> InnerProduct2
I0511 13:52:16.181207 32279 net.cpp:141] Setting up InnerProduct2
I0511 13:52:16.181215 32279 net.cpp:148] Top shape: 1 42 (42)
I0511 13:52:16.181216 32279 net.cpp:156] Memory required for data: 608
I0511 13:52:16.181223 32279 layer_factory.hpp:77] Creating layer ReLU2
I0511 13:52:16.181229 32279 net.cpp:91] Creating Layer ReLU2
I0511 13:52:16.181232 32279 net.cpp:425] ReLU2 <- InnerProduct2
I0511 13:52:16.181236 32279 net.cpp:386] ReLU2 -> InnerProduct2 (in-place)
I0511 13:52:16.181354 32279 net.cpp:141] Setting up ReLU2
I0511 13:52:16.181360 32279 net.cpp:148] Top shape: 1 42 (42)
I0511 13:52:16.181363 32279 net.cpp:156] Memory required for data: 776
I0511 13:52:16.181365 32279 layer_factory.hpp:77] Creating layer InnerProduct3
I0511 13:52:16.181370 32279 net.cpp:91] Creating Layer InnerProduct3
I0511 13:52:16.181373 32279 net.cpp:425] InnerProduct3 <- InnerProduct2
I0511 13:52:16.181377 32279 net.cpp:399] InnerProduct3 -> InnerProduct3
I0511 13:52:16.181457 32279 net.cpp:141] Setting up InnerProduct3
I0511 13:52:16.181463 32279 net.cpp:148] Top shape: 1 7 (7)
I0511 13:52:16.181465 32279 net.cpp:156] Memory required for data: 804
I0511 13:52:16.181471 32279 net.cpp:219] InnerProduct3 does not need backward computation.
I0511 13:52:16.181476 32279 net.cpp:219] ReLU2 does not need backward computation.
I0511 13:52:16.181479 32279 net.cpp:219] InnerProduct2 does not need backward computation.
I0511 13:52:16.181483 32279 net.cpp:219] ReLU1 does not need backward computation.
…
