…
I0511 14:59:50.745472   515 solver.cpp:48] Initializing solver from parameters: 
test_iter: 1
test_iter: 1
test_interval: 1000000
base_lr: 0.001
display: 0
lr_policy: "fixed"
momentum: 0.9
weight_decay: 0.005
snapshot_prefix: "python/../experiments/mjc_mdgps_example/policy"
random_seed: 1
train_net_param {
  layer {
    name: "Python1"
    type: "Python"
    top: "Python1"
    top: "Python2"
    top: "Python3"
    python_param {
      module: "policy_layers"
      layer: "PolicyDataLayer"
      param_str: "{\"shape\": [{\"dim\": [25, 26]}, {\"dim\": [25, 7]}, {\"dim\": [25, 7, 7]}]}"
    }
  }
  layer {
    name: "InnerProduct1"
    type: "InnerProduct"
    bottom: "Python1"
    top: "InnerProduct1"
    inner_product_param {
      num_output: 42
      weight_filler {
        type: "gaussian"
        std: 0.01
      }
      bias_filler {
        type: "constant"
        value: 0
      }
    }
  }
  layer {
    name: "ReLU1"
    type: "ReLU"
    bottom: "InnerProduct1"
    top: "InnerProduct1"
  }
  layer {
    name: "InnerProduct2"
    type: "InnerProduct"
    bottom: "InnerProduct1"
    top: "InnerProduct2"
    inner_product_param {
      num_output: 42
      weight_filler {
        type: "gaussian"
        std: 0.01
      }
      bias_filler {
        type: "constant"
        value: 0
      }
    }
  }
  layer {
    name: "ReLU2"
    type: "ReLU"
    bottom: "InnerProduct2"
    top: "InnerProduct2"
  }
  layer {
    name: "InnerProduct3"
    type: "InnerProduct"
    bottom: "InnerProduct2"
    top: "InnerProduct3"
    inner_product_param {
      num_output: 7
      weight_filler {
        type: "gaussian"
        std: 0.01
      }
      bias_filler {
        type: "constant"
        value: 0
      }
    }
  }
  layer {
    name: "Python4"
    type: "Python"
    bottom: "InnerProduct3"
    bottom: "Python2"
    bottom: "Python3"
    top: "Python4"
    loss_weight: 1
    python_param {
      module: "policy_layers"
      layer: "WeightedEuclideanLoss"
    }
  }
}
test_net_param {
  layer {
    name: "Python1"
    type: "Python"
    top: "Python1"
    python_param {
      module: "policy_layers"
      layer: "PolicyDataLayer"
      param_str: "{\"shape\": [{\"dim\": [1, 26]}]}"
    }
  }
  layer {
    name: "InnerProduct1"
    type: "InnerProduct"
    bottom: "Python1"
    top: "InnerProduct1"
    inner_product_param {
      num_output: 42
      weight_filler {
        type: "gaussian"
        std: 0.01
      }
      bias_filler {
        type: "constant"
        value: 0
      }
    }
  }
  layer {
    name: "ReLU1"
    type: "ReLU"
    bottom: "InnerProduct1"
    top: "InnerProduct1"
  }
  layer {
    name: "InnerProduct2"
    type: "InnerProduct"
    bottom: "InnerProduct1"
    top: "InnerProduct2"
    inner_product_param {
      num_output: 42
      weight_filler {
        type: "gaussian"
        std: 0.01
      }
      bias_filler {
        type: "constant"
        value: 0
      }
    }
  }
  layer {
    name: "ReLU2"
    type: "ReLU"
    bottom: "InnerProduct2"
    top: "InnerProduct2"
  }
  layer {
    name: "InnerProduct3"
    type: "InnerProduct"
    bottom: "InnerProduct2"
    top: "InnerProduct3"
    inner_product_param {
      num_output: 7
      weight_filler {
        type: "gaussian"
        std: 0.01
      }
      bias_filler {
        type: "constant"
        value: 0
      }
    }
  }
}
test_net_param {
  layer {
    name: "DummyData1"
    type: "DummyData"
    top: "DummyData1"
    dummy_data_param {
      shape {
        dim: 1
        dim: 26
      }
    }
  }
  layer {
    name: "InnerProduct1"
    type: "InnerProduct"
    bottom: "DummyData1"
    top: "InnerProduct1"
    inner_product_param {
      num_output: 42
      weight_filler {
        type: "gaussian"
        std: 0.01
      }
      bias_filler {
        type: "constant"
        value: 0
      }
    }
  }
  layer {
    name: "ReLU1"
    type: "ReLU"
    bottom: "InnerProduct1"
    top: "InnerProduct1"
  }
  layer {
    name: "InnerProduct2"
    type: "InnerProduct"
    bottom: "InnerProduct1"
    top: "InnerProduct2"
    inner_product_param {
      num_output: 42
      weight_filler {
        type: "gaussian"
        std: 0.01
      }
      bias_filler {
        type: "constant"
        value: 0
      }
    }
  }
  layer {
    name: "ReLU2"
    type: "ReLU"
    bottom: "InnerProduct2"
    top: "InnerProduct2"
  }
  layer {
    name: "InnerProduct3"
    type: "InnerProduct"
    bottom: "InnerProduct2"
    top: "InnerProduct3"
    inner_product_param {
      num_output: 7
      weight_filler {
        type: "gaussian"
        std: 0.01
      }
      bias_filler {
        type: "constant"
        value: 0
      }
    }
  }
}
type: "Adam"
I0511 14:59:50.745525   515 solver.cpp:77] Creating training net specified in train_net_param.
I0511 14:59:50.745580   515 net.cpp:49] Initializing net from parameters: 
state {
  phase: TRAIN
}
layer {
  name: "Python1"
  type: "Python"
  top: "Python1"
  top: "Python2"
  top: "Python3"
  python_param {
    module: "policy_layers"
    layer: "PolicyDataLayer"
    param_str: "{\"shape\": [{\"dim\": [25, 26]}, {\"dim\": [25, 7]}, {\"dim\": [25, 7, 7]}]}"
  }
}
layer {
  name: "InnerProduct1"
  type: "InnerProduct"
  bottom: "Python1"
  top: "InnerProduct1"
  inner_product_param {
    num_output: 42
    weight_filler {
      type: "gaussian"
      std: 0.01
    }
    bias_filler {
      type: "constant"
      value: 0
    }
  }
}
layer {
  name: "ReLU1"
  type: "ReLU"
  bottom: "InnerProduct1"
  top: "InnerProduct1"
}
layer {
  name: "InnerProduct2"
  type: "InnerProduct"
  bottom: "InnerProduct1"
  top: "InnerProduct2"
  inner_product_param {
    num_output: 42
    weight_filler {
      type: "gaussian"
      std: 0.01
    }
    bias_filler {
      type: "constant"
      value: 0
    }
  }
}
layer {
  name: "ReLU2"
  type: "ReLU"
  bottom: "InnerProduct2"
  top: "InnerProduct2"
}
layer {
  name: "InnerProduct3"
  type: "InnerProduct"
  bottom: "InnerProduct2"
  top: "InnerProduct3"
  inner_product_param {
    num_output: 7
    weight_filler {
      type: "gaussian"
      std: 0.01
    }
    bias_filler {
      type: "constant"
      value: 0
    }
  }
}
layer {
  name: "Python4"
  type: "Python"
  bottom: "InnerProduct3"
  bottom: "Python2"
  bottom: "Python3"
  top: "Python4"
  loss_weight: 1
  python_param {
    module: "policy_layers"
    layer: "WeightedEuclideanLoss"
  }
}
I0511 14:59:50.745609   515 layer_factory.hpp:77] Creating layer Python1
I0511 14:59:50.745816   515 net.cpp:91] Creating Layer Python1
I0511 14:59:50.745829   515 net.cpp:399] Python1 -> Python1
I0511 14:59:50.745836   515 net.cpp:399] Python1 -> Python2
I0511 14:59:50.745842   515 net.cpp:399] Python1 -> Python3
I0511 14:59:50.753621   515 net.cpp:141] Setting up Python1
I0511 14:59:50.753638   515 net.cpp:148] Top shape: 25 26 (650)
I0511 14:59:50.753643   515 net.cpp:148] Top shape: 25 7 (175)
I0511 14:59:50.753645   515 net.cpp:148] Top shape: 25 7 7 (1225)
I0511 14:59:50.753648   515 net.cpp:156] Memory required for data: 8200
I0511 14:59:50.753653   515 layer_factory.hpp:77] Creating layer InnerProduct1
I0511 14:59:50.753666   515 net.cpp:91] Creating Layer InnerProduct1
I0511 14:59:50.753670   515 net.cpp:425] InnerProduct1 <- Python1
I0511 14:59:50.753676   515 net.cpp:399] InnerProduct1 -> InnerProduct1
I0511 14:59:50.754135   515 net.cpp:141] Setting up InnerProduct1
I0511 14:59:50.754156   515 net.cpp:148] Top shape: 25 42 (1050)
I0511 14:59:50.754159   515 net.cpp:156] Memory required for data: 12400
I0511 14:59:50.754168   515 layer_factory.hpp:77] Creating layer ReLU1
I0511 14:59:50.754175   515 net.cpp:91] Creating Layer ReLU1
I0511 14:59:50.754179   515 net.cpp:425] ReLU1 <- InnerProduct1
I0511 14:59:50.754182   515 net.cpp:386] ReLU1 -> InnerProduct1 (in-place)
I0511 14:59:50.875982   515 net.cpp:141] Setting up ReLU1
I0511 14:59:50.876005   515 net.cpp:148] Top shape: 25 42 (1050)
I0511 14:59:50.876009   515 net.cpp:156] Memory required for data: 16600
I0511 14:59:50.876014   515 layer_factory.hpp:77] Creating layer InnerProduct2
I0511 14:59:50.876025   515 net.cpp:91] Creating Layer InnerProduct2
I0511 14:59:50.876030   515 net.cpp:425] InnerProduct2 <- InnerProduct1
I0511 14:59:50.876037   515 net.cpp:399] InnerProduct2 -> InnerProduct2
I0511 14:59:50.876195   515 net.cpp:141] Setting up InnerProduct2
I0511 14:59:50.876204   515 net.cpp:148] Top shape: 25 42 (1050)
I0511 14:59:50.876206   515 net.cpp:156] Memory required for data: 20800
I0511 14:59:50.876215   515 layer_factory.hpp:77] Creating layer ReLU2
I0511 14:59:50.876221   515 net.cpp:91] Creating Layer ReLU2
I0511 14:59:50.876224   515 net.cpp:425] ReLU2 <- InnerProduct2
I0511 14:59:50.876229   515 net.cpp:386] ReLU2 -> InnerProduct2 (in-place)
I0511 14:59:50.876348   515 net.cpp:141] Setting up ReLU2
I0511 14:59:50.876356   515 net.cpp:148] Top shape: 25 42 (1050)
I0511 14:59:50.876360   515 net.cpp:156] Memory required for data: 25000
I0511 14:59:50.876363   515 layer_factory.hpp:77] Creating layer InnerProduct3
I0511 14:59:50.876368   515 net.cpp:91] Creating Layer InnerProduct3
I0511 14:59:50.876371   515 net.cpp:425] InnerProduct3 <- InnerProduct2
I0511 14:59:50.876375   515 net.cpp:399] InnerProduct3 -> InnerProduct3
I0511 14:59:50.876837   515 net.cpp:141] Setting up InnerProduct3
I0511 14:59:50.876847   515 net.cpp:148] Top shape: 25 7 (175)
I0511 14:59:50.876850   515 net.cpp:156] Memory required for data: 25700
I0511 14:59:50.876857   515 layer_factory.hpp:77] Creating layer Python4
I0511 14:59:50.876905   515 net.cpp:91] Creating Layer Python4
I0511 14:59:50.876912   515 net.cpp:425] Python4 <- InnerProduct3
I0511 14:59:50.876916   515 net.cpp:425] Python4 <- Python2
I0511 14:59:50.876920   515 net.cpp:425] Python4 <- Python3
I0511 14:59:50.876924   515 net.cpp:399] Python4 -> Python4
I0511 14:59:50.876976   515 net.cpp:141] Setting up Python4
I0511 14:59:50.876982   515 net.cpp:148] Top shape: 1 (1)
I0511 14:59:50.876986   515 net.cpp:151]     with loss weight 1
I0511 14:59:50.877001   515 net.cpp:156] Memory required for data: 25704
I0511 14:59:50.877003   515 net.cpp:217] Python4 needs backward computation.
I0511 14:59:50.877007   515 net.cpp:217] InnerProduct3 needs backward computation.
I0511 14:59:50.877010   515 net.cpp:217] ReLU2 needs backward computation.
I0511 14:59:50.877012   515 net.cpp:217] InnerProduct2 needs backward computation.
I0511 14:59:50.877015   515 net.cpp:217] ReLU1 needs backward computation.
I0511 14:59:50.877018   515 net.cpp:217] InnerProduct1 needs backward computation.
I0511 14:59:50.877022   515 net.cpp:219] Python1 does not need backward computation.
I0511 14:59:50.877024   515 net.cpp:261] This network produces output Python4
I0511 14:59:50.877030   515 net.cpp:274] Network initialization done.
I0511 14:59:50.877063   515 solver.cpp:181] Creating test net (#0) specified by test_net_param
I0511 14:59:50.877120   515 net.cpp:49] Initializing net from parameters: 
state {
  phase: TEST
}
layer {
  name: "Python1"
  type: "Python"
  top: "Python1"
  python_param {
    module: "policy_layers"
    layer: "PolicyDataLayer"
    param_str: "{\"shape\": [{\"dim\": [1, 26]}]}"
  }
}
layer {
  name: "InnerProduct1"
  type: "InnerProduct"
  bottom: "Python1"
  top: "InnerProduct1"
  inner_product_param {
    num_output: 42
    weight_filler {
      type: "gaussian"
      std: 0.01
    }
    bias_filler {
      type: "constant"
      value: 0
    }
  }
}
layer {
  name: "ReLU1"
  type: "ReLU"
  bottom: "InnerProduct1"
  top: "InnerProduct1"
}
layer {
  name: "InnerProduct2"
  type: "InnerProduct"
  bottom: "InnerProduct1"
  top: "InnerProduct2"
  inner_product_param {
    num_output: 42
    weight_filler {
      type: "gaussian"
      std: 0.01
    }
    bias_filler {
      type: "constant"
      value: 0
    }
  }
}
layer {
  name: "ReLU2"
  type: "ReLU"
  bottom: "InnerProduct2"
  top: "InnerProduct2"
}
layer {
  name: "InnerProduct3"
  type: "InnerProduct"
  bottom: "InnerProduct2"
  top: "InnerProduct3"
  inner_product_param {
    num_output: 7
    weight_filler {
      type: "gaussian"
      std: 0.01
    }
    bias_filler {
      type: "constant"
      value: 0
    }
  }
}
I0511 14:59:50.877145   515 layer_factory.hpp:77] Creating layer Python1
I0511 14:59:50.877163   515 net.cpp:91] Creating Layer Python1
I0511 14:59:50.877167   515 net.cpp:399] Python1 -> Python1
I0511 14:59:50.877234   515 net.cpp:141] Setting up Python1
I0511 14:59:50.877243   515 net.cpp:148] Top shape: 1 26 (26)
I0511 14:59:50.877246   515 net.cpp:156] Memory required for data: 104
I0511 14:59:50.877249   515 layer_factory.hpp:77] Creating layer InnerProduct1
I0511 14:59:50.877255   515 net.cpp:91] Creating Layer InnerProduct1
I0511 14:59:50.877259   515 net.cpp:425] InnerProduct1 <- Python1
I0511 14:59:50.877264   515 net.cpp:399] InnerProduct1 -> InnerProduct1
I0511 14:59:50.877363   515 net.cpp:141] Setting up InnerProduct1
I0511 14:59:50.877370   515 net.cpp:148] Top shape: 1 42 (42)
I0511 14:59:50.877373   515 net.cpp:156] Memory required for data: 272
I0511 14:59:50.877382   515 layer_factory.hpp:77] Creating layer ReLU1
I0511 14:59:50.877387   515 net.cpp:91] Creating Layer ReLU1
I0511 14:59:50.877389   515 net.cpp:425] ReLU1 <- InnerProduct1
I0511 14:59:50.877393   515 net.cpp:386] ReLU1 -> InnerProduct1 (in-place)
I0511 14:59:50.877621   515 net.cpp:141] Setting up ReLU1
I0511 14:59:50.877632   515 net.cpp:148] Top shape: 1 42 (42)
I0511 14:59:50.877635   515 net.cpp:156] Memory required for data: 440
I0511 14:59:50.877638   515 layer_factory.hpp:77] Creating layer InnerProduct2
I0511 14:59:50.877643   515 net.cpp:91] Creating Layer InnerProduct2
I0511 14:59:50.877646   515 net.cpp:425] InnerProduct2 <- InnerProduct1
I0511 14:59:50.877651   515 net.cpp:399] InnerProduct2 -> InnerProduct2
I0511 14:59:50.877773   515 net.cpp:141] Setting up InnerProduct2
I0511 14:59:50.877779   515 net.cpp:148] Top shape: 1 42 (42)
I0511 14:59:50.877782   515 net.cpp:156] Memory required for data: 608
I0511 14:59:50.877789   515 layer_factory.hpp:77] Creating layer ReLU2
I0511 14:59:50.877794   515 net.cpp:91] Creating Layer ReLU2
I0511 14:59:50.877796   515 net.cpp:425] ReLU2 <- InnerProduct2
I0511 14:59:50.877799   515 net.cpp:386] ReLU2 -> InnerProduct2 (in-place)
I0511 14:59:50.877917   515 net.cpp:141] Setting up ReLU2
I0511 14:59:50.877923   515 net.cpp:148] Top shape: 1 42 (42)
I0511 14:59:50.877926   515 net.cpp:156] Memory required for data: 776
I0511 14:59:50.877929   515 layer_factory.hpp:77] Creating layer InnerProduct3
I0511 14:59:50.877934   515 net.cpp:91] Creating Layer InnerProduct3
I0511 14:59:50.877938   515 net.cpp:425] InnerProduct3 <- InnerProduct2
I0511 14:59:50.877941   515 net.cpp:399] InnerProduct3 -> InnerProduct3
I0511 14:59:50.878018   515 net.cpp:141] Setting up InnerProduct3
I0511 14:59:50.878024   515 net.cpp:148] Top shape: 1 7 (7)
I0511 14:59:50.878027   515 net.cpp:156] Memory required for data: 804
I0511 14:59:50.878034   515 net.cpp:219] InnerProduct3 does not need backward computation.
I0511 14:59:50.878037   515 net.cpp:219] ReLU2 does not need backward computation.
I0511 14:59:50.878041   515 net.cpp:219] InnerProduct2 does not need backward computation.
I0511 14:59:50.878043   515 net.cpp:219] ReLU1 does not need backward computation.
I0511 14:59:50.878046   515 net.cpp:219] InnerProduct1 does not need backward computation.
I0511 14:59:50.878048   515 net.cpp:219] Python1 does not need backward computation.
I0511 14:59:50.878051   515 net.cpp:261] This network produces output InnerProduct3
I0511 14:59:50.878057   515 net.cpp:274] Network initialization done.
I0511 14:59:50.878067   515 solver.cpp:181] Creating test net (#1) specified by test_net_param
I0511 14:59:50.878114   515 net.cpp:49] Initializing net from parameters: 
state {
  phase: TEST
}
layer {
  name: "DummyData1"
  type: "DummyData"
  top: "DummyData1"
  dummy_data_param {
    shape {
      dim: 1
      dim: 26
    }
  }
}
layer {
  name: "InnerProduct1"
  type: "InnerProduct"
  bottom: "DummyData1"
  top: "InnerProduct1"
  inner_product_param {
    num_output: 42
    weight_filler {
      type: "gaussian"
      std: 0.01
    }
    bias_filler {
      type: "constant"
      value: 0
    }
  }
}
layer {
  name: "ReLU1"
  type: "ReLU"
  bottom: "InnerProduct1"
  top: "InnerProduct1"
}
layer {
  name: "InnerProduct2"
  type: "InnerProduct"
  bottom: "InnerProduct1"
  top: "InnerProduct2"
  inner_product_param {
    num_output: 42
    weight_filler {
      type: "gaussian"
      std: 0.01
    }
    bias_filler {
      type: "constant"
      value: 0
    }
  }
}
layer {
  name: "ReLU2"
  type: "ReLU"
  bottom: "InnerProduct2"
  top: "InnerProduct2"
}
layer {
  name: "InnerProduct3"
  type: "InnerProduct"
  bottom: "InnerProduct2"
  top: "InnerProduct3"
  inner_product_param {
    num_output: 7
    weight_filler {
      type: "gaussian"
      std: 0.01
    }
    bias_filler {
      type: "constant"
      value: 0
    }
  }
}
I0511 14:59:50.878134   515 layer_factory.hpp:77] Creating layer DummyData1
I0511 14:59:50.878139   515 net.cpp:91] Creating Layer DummyData1
I0511 14:59:50.878144   515 net.cpp:399] DummyData1 -> DummyData1
I0511 14:59:50.878175   515 net.cpp:141] Setting up DummyData1
I0511 14:59:50.878183   515 net.cpp:148] Top shape: 1 26 (26)
I0511 14:59:50.878185   515 net.cpp:156] Memory required for data: 104
I0511 14:59:50.878190   515 layer_factory.hpp:77] Creating layer InnerProduct1
I0511 14:59:50.878193   515 net.cpp:91] Creating Layer InnerProduct1
I0511 14:59:50.878196   515 net.cpp:425] InnerProduct1 <- DummyData1
I0511 14:59:50.878201   515 net.cpp:399] InnerProduct1 -> InnerProduct1
I0511 14:59:50.878295   515 net.cpp:141] Setting up InnerProduct1
I0511 14:59:50.878301   515 net.cpp:148] Top shape: 1 42 (42)
I0511 14:59:50.878304   515 net.cpp:156] Memory required for data: 272
I0511 14:59:50.878311   515 layer_factory.hpp:77] Creating layer ReLU1
I0511 14:59:50.878315   515 net.cpp:91] Creating Layer ReLU1
I0511 14:59:50.878319   515 net.cpp:425] ReLU1 <- InnerProduct1
I0511 14:59:50.878322   515 net.cpp:386] ReLU1 -> InnerProduct1 (in-place)
I0511 14:59:50.878545   515 net.cpp:141] Setting up ReLU1
I0511 14:59:50.878556   515 net.cpp:148] Top shape: 1 42 (42)
I0511 14:59:50.878558   515 net.cpp:156] Memory required for data: 440
I0511 14:59:50.878561   515 layer_factory.hpp:77] Creating layer InnerProduct2
I0511 14:59:50.878567   515 net.cpp:91] Creating Layer InnerProduct2
I0511 14:59:50.878571   515 net.cpp:425] InnerProduct2 <- InnerProduct1
I0511 14:59:50.878576   515 net.cpp:399] InnerProduct2 -> InnerProduct2
I0511 14:59:50.878695   515 net.cpp:141] Setting up InnerProduct2
I0511 14:59:50.878702   515 net.cpp:148] Top shape: 1 42 (42)
I0511 14:59:50.878706   515 net.cpp:156] Memory required for data: 608
I0511 14:59:50.878712   515 layer_factory.hpp:77] Creating layer ReLU2
I0511 14:59:50.878717   515 net.cpp:91] Creating Layer ReLU2
I0511 14:59:50.878720   515 net.cpp:425] ReLU2 <- InnerProduct2
I0511 14:59:50.878725   515 net.cpp:386] ReLU2 -> InnerProduct2 (in-place)
I0511 14:59:50.878839   515 net.cpp:141] Setting up ReLU2
I0511 14:59:50.878846   515 net.cpp:148] Top shape: 1 42 (42)
I0511 14:59:50.878849   515 net.cpp:156] Memory required for data: 776
I0511 14:59:50.878852   515 layer_factory.hpp:77] Creating layer InnerProduct3
I0511 14:59:50.878856   515 net.cpp:91] Creating Layer InnerProduct3
I0511 14:59:50.878859   515 net.cpp:425] InnerProduct3 <- InnerProduct2
I0511 14:59:50.878864   515 net.cpp:399] InnerProduct3 -> InnerProduct3
I0511 14:59:50.878942   515 net.cpp:141] Setting up InnerProduct3
I0511 14:59:50.878947   515 net.cpp:148] Top shape: 1 7 (7)
I0511 14:59:50.878949   515 net.cpp:156] Memory required for data: 804
I0511 14:59:50.878957   515 net.cpp:219] InnerProduct3 does not need backward computation.
I0511 14:59:50.878959   515 net.cpp:219] ReLU2 does not need backward computation.
I0511 14:59:50.878962   515 net.cpp:219] InnerProduct2 does not need backward computation.
I0511 14:59:50.878964   515 net.cpp:219] ReLU1 does not need backward computation.
…
